actor_model.pt (torch_old, 44314 bytes, 8 tensors)

dense_1.weight f4 [64, 33]
000000 5b ca 3c 3f ba c3 f3 3e 8e 59 b3 be 8d 00 37 3e
       0.7374627 0.47610265 -0.35029262 0.17871304
000010 ae 21 2b 3b 22 a6 ae bf 9b 71 8d be 69 35 e6 3d
       0.0026112604 -1.364445 -0.27625737 0.11240656
000020 48 6d 98 3e 2d c0 50 be 16 2f e3 3c ca 8c 37 bd
       0.29770875 -0.20385809 0.027732413 -0.044812
000030 90 bf 0e bc bd f2 57 bf 78 31 c4 be 78 80 cd 3e
       -0.008712664 -0.84354764 -0.38318992 0.40137076
000040 52 f6 f0 3e bd e3 8a 3e 3e 28 ba 3d ff 38 2e be
       0.47062927 0.27126876 0.09089707 -0.1701393
000050 dd c3 ea bd c8 cb be ba 2b 9a 09 3d 2b 4c a9 3d
       -0.11463139 -0.0014556581 0.03359429 0.08266481
000060 7c 80 06 3d 79 60 53 bd 17 1f be 3d d9 50 1b be
       0.032837376 -0.051605675 0.09283274 -0.1516756
000070 7b 1c 1d be 2c 83 34 bd 16 14 9f bd 4e 03 1a 3e
       -0.15342896 -0.044070408 -0.07767503 0.15040323
000080 d2 68 8e be e1 7a 86 bd 3c ea 3e bf 3c 1a df be
       -0.27814347 -0.06566406 -0.74576163 -0.43574703
000090 06 dc 98 3e ce 63 e1 3e 06 93 06 be 93 6a 1e 3e
       0.29855365 0.44021457 -0.13142022 0.15470342
0000a0 49 80 38 3c d5 a7 ae 3e 13 e3 8b 3d ea 6f 64 bd
       0.011261054 0.3411242 0.0683042 -0.055770792
0000b0 c5 bf d0 bc c7 5b e0 bd 53 0c a0 bd 21 f7 c4 3e
       -0.025482068 -0.10955005 -0.07814851 0.38469794
0000c0 04 c0 d2 3e 72 38 e5 be 43 77 98 3d 96 57 46 3e
       0.4116212 -0.44769627 0.07444622 0.19369349
0000d0 f1 f8 81 be 33 cc ff bc e1 85 b9 bd 48 97 83 3d
       -0.2538524 -0.0312253 -0.090587385 0.06425339
0000e0 dd 8e 24 3d 24 1f 93 3d 35 64 2a 3e ec b2 ee 3d
       0.040175308 0.07183674 0.16639788 0.116552204
0000f0 d9 eb 77 bf 09 af f8 bd 22 2e d3 bd 3a c6 8c 3f
       -0.9684425 -0.1214276 -0.103115335 1.0997994
000100 f0 b6 c3 3d c8 40 01 c0 a5 bd 01 3f 46 6d 02 3f
       0.09556377 -2.019579 0.5068 0.5094799
000110 05 21 4b 3e 19 6f 48 3e 2f 7e 44 bf b9 a2 ac 3e
       0.19836815 0.1957363 -0.7675504 0.33717898
000120 97 07 7f 3c bf 6f 9a 3d 1b a6 c9 be 3b 7f 8b 3d
       0.015565774 0.07540845 -0.3938454 0.06811377
000130 d4 e3 57 3e a1 da d2 3c 1c 13 8e 3d 84 ef d2 be
       0.21083003 0.025739016 0.069372386 -0.4119836
000140 5c 35 33 be e8 ed 87 be 8f 26 0c 3d 25 b6 72 3e
       -0.17500824 -0.26548696 0.03421646 0.23702295
000150 ea ad 22 be 0a eb da 3e 5f 9e 94 3c ca ad 9d bd
       -0.15886655 0.42757446 0.018141923 -0.07699163
000160 1f 90 07 be 12 55 df 3c 9f 2e 37 bc 84 9a f0 bd
       -0.13238572 0.027262244 -0.011180549 -0.117482215
000170 bd 6d 5a 3e 9c d1 c5 3d 63 61 bf 3d 82 44 e7 bd
       0.21330924 0.096591204 0.09344747 -0.11292364
000180 7e fc 62 3d 8c 3c 15 3d 1e 67 28 c0 67 5a ae 3e
       0.055416577 0.036434695 -2.6312938 0.34053347
000190 4f 34 1b bd 91 74 3b 3d 38 80 e0 be e7 e6 fe 3e
       -0.037891682 0.045765463 -0.43847823 0.4978554
0001a0 ed 04 70 3f 3b 95 07 3f f8 68 85 be e3 c6 0d bf
       0.93757516 0.5296208 -0.26056647 -0.553816
0001b0 52 0b a5 bd 5c a0 09 bd 92 7b 58 be 42 fd 45 3e
       -0.080588 -0.033600196 -0.21140888 0.19334891
0001c0 1a 17 da bc d2 92 96 3e b0 8d e6 3d d0 43 bc 3e
       -0.026622344 0.2940889 0.112574935 0.36770487
0001d0 7f b8 a0 3e ba b1 6f 3d 79 69 5a 3e e3 94 8c 3e
       0.3139076 0.058519103 0.21329297 0.27457342
0001e0 4c 7c 7d 3e cf e4 1e 3e bd 2e 26 3d 22 97 c0 3c
       0.24754447 0.15516971 0.040571917 0.023509566
0001f0 bb d9 fa bd c1 ad c1 be 55 4e 94 3e 3c bb 2e bb
       -0.1224856 -0.37827876 0.28966013 -0.0026661893
000200 5e 70 79 bd d5 aa f3 be ac ab 17 bd 56 a5 0c c0
       -0.060898177 -0.47591272 -0.037028953 -2.1975913
000210 88 15 8d be 63 e8 96 3e e5 93 4b be db b0 cf be
       -0.2755549 0.29474172 -0.19880636 -0.40564618
000220 72 d5 86 3f 74 a4 b3 bf 29 a1 26 3e e6 58 40 3d
       1.0533888 -1.4034562 0.16272415 0.04695978
000230 6e 45 95 be 46 b6 d9 3c 12 ba 83 be ff 83 c2 3d
       -0.29154533 0.026576173 -0.25727898 0.094978325
000240 0b 67 e0 3c 49 6e de 3e ed 29 18 3e eb 26 c7 3e
       0.027392885 0.43443516 0.14859743 0.3889688
000250 81 2d e5 bd 26 40 92 3e 94 13 a4 be 44 7c 5f be
       -0.1119032 0.28564566 -0.32046187 -0.21824747
000260 01 97 b5 3c 82 bb 77 3d 64 7f 83 bd 4a 63 11 3f
       0.02216673 0.060481556 -0.06420782 0.5679213
000270 49 e2 17 3d a1 4e 4f 3d aa 3f 12 be 3e 71 01 3e
       0.037081037 0.050612096 -0.14282098 0.12640855
000280 e2 b7 12 bf 28 ff 0b bd 35 d7 b4 be 9e e9 19 be
       -0.5731183 -0.034178883 -0.3532044 -0.15030524
000290 a0 fa da 3f 02 b4 5f bf 18 c5 c5 3e 06 e7 78 3f
       1.7107735 -0.87384045 0.38626933 0.97227514
0002a0 e6 e6 6c 3e 8d c4 59 3e 95 ca b5 be 87 ca 12 3e
       0.23134956 0.21266384 -0.3550612 0.1433507
0002b0 32 63 b8 3d 6f ae 12 bf 5d 01 7f be 6d 87 49 be
       0.09003295 -0.57297415 -0.24902864 -0.19680567
0002c0 e7 59 35 bd 0f 47 57 3e da b3 2e 3f 47 b5 1b bf
       -0.04427519 0.210232 0.6824318 -0.6082348
0002d0 dd 09 f7 be 6e c9 db 3e 3c 22 cc be fa b1 9e be
       -0.48249713 0.42927116 -0.3986987 -0.3099516
0002e0 92 12 a6 3c 06 4b 57 3d f9 f7 85 3d 0d 54 b6 bd
       0.020272527 0.052561782 0.06541438 -0.0890275
0002f0 62 51 e7 3d 16 66 97 3d 96 9d 8a bd b5 2a 6f be
       0.112948194 0.07392518 -0.067683384 -0.23356135
000300 20 92 40 be aa 39 c5 3c 1a 51 fb bd 35 4e fa bc
       -0.18805742 0.024075348 -0.12271328 -0.03055487
000310 af bd cf bd fa 1a 30 3f ab b6 bf 3e f5 77 29 3f
       -0.10143601 0.6879116 0.37444052 0.66198665
000320 ab 4f 2a bf 53 e1 87 be 1d 92 1a 3f 24 1d 67 3f
       -0.66527814 -0.26539096 0.603792 0.9027884
000330 e8 57 78 bd 01 a3 e9 3d b6 59 c5 be 55 79 a4 3d
       -0.06063071 0.11408044 -0.38545007 0.08030955
000340 d5 08 88 3d 69 25 bf 3d 28 a1 27 be d4 79 2e be
       0.066423096 0.09333307 -0.1637007 -0.17038661
000350 42 57 47 be 2e 08 d2 3e 63 5b 9a 3d 1f 3f 96 3e
       -0.1946688 0.41021866 0.07536962 0.29345033
000360 e8 d6 34 3f f8 00 39 3e 08 f2 70 3d a4 7d a5 3e
       0.7064042 0.18066776 0.05882457 0.3232242
000370 d0 4a 9c 3d fb 3a 35 3c 50 ff a7 bd 3f 75 1f bc
       0.07631457 0.011061425 -0.08202994 -0.0097325435
000380 ad b9 3f 3d dc bf ac 3e b8 a5 ee be c8 66 4a bd
       0.046807934 0.33740127 -0.46610808 -0.049414426
000390 fe 7f 9e be e0 2d d3 bc 0c 0b 83 be 54 73 ea be
       -0.30957025 -0.02577871 -0.25594366 -0.45791113
0003a0 b1 70 c7 3e 62 16 dd 3c c4 0c 2f bf 27 05 02 bf
       0.38953164 0.026988212 -0.68378854 -0.5078911
0003b0 f9 f5 46 3f dc 75 f4 be b7 a2 4c be e6 99 c4 be
       0.77719074 -0.4774617 -0.19983946 -0.38398665
0003c0 f3 0b 86 3e 5d 7d 17 3d 84 8a 37 bd 8d 68 d2 bb
       0.26180992 0.03698479 -0.044809833 -0.006421155
0003d0 19 87 49 be c6 5d 5c bc 10 ab 23 bd 9a d3 9b 3d
       -0.19680442 -0.013450092 -0.03995806 0.07608719
0003e0 39 cd ac 3e b1 0e 5b ba fe 34 00 bf 55 f2 81 3e
       0.33750322 -0.0008356376 -0.5008086 0.25380197
0003f0 f4 ce f3 bc 7e 2e 0b bb a0 6a 7f be 82 bc b3 3d
       -0.029761769 -0.0021237428 -0.24943018 0.087761894

dense_1.bias f4 [64]
000000 28 79 22 bb cc e6 99 3f 30 e9 4e bc 07 2e bc be
       -0.0024791453 1.2023559 -0.012628838 -0.36753866
000010 31 52 b0 be 0b 7f e5 bc 2d 73 00 be 70 55 ac be
       -0.34437707 -0.02801468 -0.12543936 -0.33658934
000020 13 ce 61 be 64 da 00 3f ba 51 e7 be 70 ae c3 bd
       -0.22051267 0.5033324 -0.4517954 -0.09554756
000030 bc 3c 4a be df 75 d0 3e 5c 12 a4 be 33 3f a0 be
       -0.19749731 0.40714929 -0.32045257 -0.31298217
000040 b8 77 20 3b c0 d4 10 bf 15 88 02 3e 1a 8f bb 3e
       0.002448542 -0.5657463 0.12747224 0.36632615
000050 34 ab 70 bd 83 6b 24 bd 7f 51 4e be df 28 1d be
       -0.058757022 -0.040141594 -0.20148276 -0.15347622
000060 ee 2e af 3e 1f c3 2f bf 0d 20 db 3e 67 42 0d bd
       0.34215492 -0.68657106 0.4279789 -0.034487154
000070 81 a2 f1 be cf 94 d6 3e f4 eb f2 be d9 a7 82 be
       -0.47194293 0.41910407 -0.47445643 -0.25518683
000080 3a a1 05 bf 27 79 ca 3e b6 3b a0 be 7e db c6 3e
       -0.5219914 0.39545557 -0.31295556 0.38839334
000090 7b 96 f8 3d e0 dd 82 bf d8 5e 7f 3e 32 48 60 3e
       0.12138077 -1.0223961 0.24938524 0.2190254
0000a0 c7 fa 2a 3c 0a 0c c4 bd b7 18 79 3e c6 25 d5 bd
       0.010435767 -0.09572609 0.24325834 -0.10407595
0000b0 33 6b 13 3d b0 d3 22 bf 7a 6c d3 bc ec b1 c8 be
       0.035990905 -0.6360426 -0.025808562 -0.39198244
0000c0 48 ad 54 be e2 d5 f2 be 8c 75 ba be 52 d9 c2 be
       -0.20769227 -0.47428805 -0.36417806 -0.38056427
0000d0 7f ea 6f bc bb da 08 3e 4a 4b 51 3f 08 ea 2d bf
       -0.014643311 0.13364689 0.81755507 -0.6793523
0000e0 a9 6c dd 3d 0c 2e 0e 3e 03 8c 5b 3d 2c 52 d3 bc
       0.10811741 0.13884753 0.053600322 -0.025796019
0000f0 8d 1f 81 3e 6d 55 43 3e 35 39 62 3e 25 53 b3 3c
       0.25219384 0.19075556 0.22092135 0.021890232

dense_2.weight f4 [64, 64]
000000 d2 ab f1 3c 07 ae 0e 3c 95 e7 49 3f 79 ba 04 bf
       0.029500876 0.008708484 0.7886899 -0.51847035
000010 6a 1f 98 3d b8 22 5b be 5c 34 58 3d 6d a2 1c bf
       0.07427867 -0.21399963 0.05278431 -0.6118534
000020 ef e2 d2 3e 03 0f a4 3e fd e8 f5 3d 14 c8 1f be
       0.41188762 0.32042703 0.120073296 -0.15603667
000030 75 a1 6b be 4e 20 f2 be 4b b1 fe 3e d3 41 c5 be
       -0.2301081 -0.47290272 0.4974464 -0.38526782
000040 46 b8 93 3d 15 0a ef bd c7 03 f2 be ee 9c e2 bd
       0.07212882 -0.11671845 -0.47268507 -0.11065088
000050 e0 66 34 be 82 c8 02 3f 51 fa 26 3d 63 fc 60 3d
       -0.17617369 0.510872 0.040766064 0.054928195
000060 68 93 a6 bd 04 fe 23 be 3a 72 18 be 16 00 a2 3e
       -0.08133584 -0.16014868 -0.14887324 0.3164069
000070 b8 ba 02 bf 1e d8 a8 3e c3 f4 c4 be db 53 60 bd
       -0.5106616 0.32977384 -0.38467988 -0.05476747
000080 75 a0 09 be 96 5b 07 3d 18 f8 44 bf 52 1b 6a be
       -0.13440116 0.033046328 -0.7694106 -0.22861984
000090 5d 46 0f 3f 99 c7 42 bf cd 48 92 bd d7 50 cc b9
       0.5596674 -0.7608581 -0.07142792 -0.00038970142
0000a0 53 bc 11 3e 7f f9 c1 bd c8 20 d9 be 8a 8b bb be
       0.14231996 -0.09471416 -0.42407823 -0.36629897
0000b0 57 27 cf bd b5 85 cb bd 22 04 da bd d1 49 6c 3f
       -0.10114925 -0.09937612 -0.106453195 0.92300135
0000c0 ce 44 d0 be 04 38 14 3e 4d ad 0e bd 90 98 b0 3e
       -0.40677494 0.14474493 -0.03483324 0.34491396
0000d0 38 11 5f 3e fa dd 73 3e b7 7c 31 bd e4 df da bd
       0.21783912 0.23815146 -0.043331828 -0.10687235
0000e0 7b e4 c4 3d cf 03 96 3e 47 41 50 3e 3d b8 76 be
       0.09613892 0.2929978 0.20337401 -0.24093719
0000f0 8e f7 73 3e 21 f1 d0 3e b7 2e 3c 3e 05 c1 f8 3d
       0.23824903 0.40808967 0.18377195 0.121461906
000100 96 ab 3f 3e c5 68 1c be e3 17 a8 be 8b ff 99 bd
       0.18717799 -0.15274341 -0.32830724 -0.07519444
000110 6c 12 55 bf 53 f8 b7 3e 67 6c 1e 3f ee 5f 38 3f
       -0.83231235 0.35931644 0.6188416 0.7202138
000120 b1 1f 13 3e 35 ab 6e 3e 63 ce de 3e 3e 5d 32 3e
       0.14367558 0.23307498 0.43516836 0.17418382
000130 e5 79 7d 3c 9c a1 85 3e 41 03 46 3e 5a f4 80 be
       0.015470956 0.2609986 0.19337179 -0.25186425
000140 b4 08 dc be 03 92 13 be 7f 76 ac 3d 9b ff 94 bd
       -0.4297539 -0.14411168 0.08421039 -0.072753154
000150 4f e7 93 3d 7f 1b c8 3e 89 dc af be 07 52 46 3d
       0.07221853 0.39083478 -0.34347942 0.04841807
000160 38 87 70 be c4 ee d8 3e f7 e2 34 be 91 97 a4 be
       -0.23489082 0.42369664 -0.17664705 -0.32146886
000170 6f a5 cc be 6e 2d 01 3f bc 35 a8 3e 00 97 fa 3e
       -0.39969966 0.50459945 0.32853496 0.4894333
000180 50 c9 96 3e 1b f8 60 bf 4e 8e e2 3e 4c f9 9c 3e
       0.29450464 -0.8787858 0.44249195 0.30658948
000190 71 9a 23 3e 12 44 02 bf f7 da 7b be b9 43 a8 3e
       0.15976883 -0.5088512 -0.24595247 0.32864168
0001a0 ec 4f d9 3e 3f 34 8e be 7c f7 23 bd 14 2a 10 3d
       0.42443788 -0.27774236 -0.04003094 0.03519638
0001b0 ad 2b 16 3e 07 90 2a 3e e4 1a 5d bd 7f 42 98 3e
       0.14665098 0.16656505 -0.053980723 0.29738232
0001c0 d0 45 6d be b5 b8 d1 3e 74 2b fa 3e c6 a5 8c bf
       -0.23171163 0.40961233 0.48861277 -1.098809
0001d0 29 2d b5 be fe d3 f8 3e 56 64 a3 3e 75 b2 59 3f
       -0.35386017 0.48599237 0.31912488 0.8503793
0001e0 d9 8e 9b 3e 6e f0 8f 3d 58 84 86 3e 67 e2 3c bf
       0.30382422 0.0702828 0.26272845 -0.7378296
0001f0 9d 67 d1 3e e1 9c af bd b6 b9 03 3e 3b 54 3c be
       0.40899363 -0.08574844 0.12863812 -0.18391506
000200 3e 50 04 bf c4 ad 5b bf 2d 1f be be 14 43 dd bf
       -0.5168494 -0.8581202 -0.3713316 -1.7286096
000210 bb 9c 3c 3e 9a 06 16 3f 70 7e d0 3e 36 c9 54 bd
       0.18419163 0.58603823 0.40721464 -0.051949702
000220 47 48 c6 be 48 35 87 be ea ea 08 3f 82 4f 31 3e
       -0.38727018 -0.26407838 0.5348345 0.17315486
000230 22 b5 d1 3e b7 fd 91 bf 91 ab 98 3e 60 ba c5 3e
       0.40958506 -1.1405553 0.29818395 0.38618755
000240 c3 a9 f3 be 58 9a 99 be a3 f1 d3 3e be 0a af 3e
       -0.47590455 -0.30000567 0.41395292 0.34187883
000250 c5 83 e9 bc 7c 5d ea be e4 10 db be d6 54 21 3e
       -0.028505215 -0.45774448 -0.42786324 0.15755019
000260 d6 f0 ae bd 09 80 3d 3d 2e eb c5 be d1 43 0c bf
       -0.085420296 0.046264682 -0.3865599 -0.5479098
000270 d5 01 00 be 4b f7 3a be 2b 4a 49 3e 70 b2 93 be
       -0.12500699 -0.18258397 0.19657199 -0.28847075
000280 03 d7 46 bd 41 31 26 3f 05 0d 9e be 00 24 0f bf
       -0.048544895 0.64918905 -0.30869308 -0.55914307
000290 b5 86 e9 be d4 af 62 3f f7 00 f4 be f4 be 42 bf
       -0.45610586 0.8854954 -0.47656986 -0.7607262
0002a0 19 89 de 3d 42 4b 2a be 72 a4 d0 bd c4 68 77 3e
       0.10865993 -0.16630271 -0.101876155 0.24161059
0002b0 68 cb 45 be d5 dd 3e 3e 5c 6d 81 3d 94 8a 7f 3e
       -0.19315875 0.1863931 0.06319687 0.24955207
0002c0 68 c3 1b 3f 1e 51 e2 be b9 f7 7b be b5 c5 12 3f
       0.6084504 -0.44202513 -0.24606217 0.57332927
0002d0 0f 8b 93 be e9 86 aa bd 16 41 78 be e4 94 da 3e
       -0.2881703 -0.08326513 -0.24243578 0.4269172
0002e0 fc 8e c2 be d7 bf 85 3d 72 d3 9c be 8d c7 bc 3c
       -0.37999713 0.06530731 -0.3063007 0.023044372
0002f0 13 45 42 be b0 1f 1c 3d a0 9c 94 3e 0f 58 2b 3c
       -0.18971662 0.038116157 0.29025745 0.0104580065
000300 ff 5d d1 3e ee 89 bd 3e 49 b5 2e bf eb 23 d2 be
       0.40892026 0.37019295 -0.6824537 -0.41043028
000310 5b cf 10 be e7 7c b4 3e 94 f3 95 be 38 8b 13 3f
       -0.141416 0.35251543 -0.29287398 0.57634306
000320 35 dc 43 be f8 bd d7 3d a3 0b e0 be b7 10 9c 3b
       -0.19126971 0.105342805 -0.43758878 0.0047627348
000330 49 cd c6 be 32 40 f8 3d 13 58 03 3d be 6b e2 3e
       -0.38828495 0.12121619 0.032066416 0.44222826
000340 3a a4 32 bf 91 4f 40 3f 18 37 9f be 74 31 03 3f
       -0.6978184 0.7512141 -0.3109672 0.51247334
000350 93 99 69 3d 4d b0 09 bf ae b1 8f 3d e3 be a3 bd
       0.057031225 -0.5378464 0.070163116 -0.07995393
000360 4e d8 1c 3e 91 a9 8e be 51 53 d9 be 5e db e4 be
       0.15316889 -0.27863744 -0.42446378 -0.44698614
000370 d8 38 3e 3d ba 29 02 3e b7 4f 8b bd f0 1b d6 be
       0.04644093 0.1271123 -0.06802314 -0.4181819
000380 3b 33 bb 3c f2 86 71 be 7a 89 52 bf ef 75 a7 3e
       0.022851577 -0.23586634 -0.8224102 0.32707164
000390 c9 d4 02 3f f3 8e 67 3e bd 37 7c 3e 4e cf 2a bf
       0.51105934 0.22613125 0.24630637 -0.6672257
0003a0 39 bd 66 be c9 b9 9b bd f1 1c 40 bf 73 f8 9e 3e
       -0.2253312 -0.07603795 -0.7504416 0.31048927
0003b0 c9 83 59 bf 94 7c 33 be 7b e5 15 be 71 31 55 bf
       -0.84966713 -0.17527992 -0.14638321 -0.83278567
0003c0 35 54 10 bf 19 20 b2 bf 30 ad 3a bf ee 2e 9b 3e
       -0.5637849 -1.3916045 -0.72920513 0.30309242
0003d0 11 d1 b5 bd 6f 74 c9 be f0 7e ab 3e aa b8 e2 3d
       -0.08877767 -0.39346644 0.33495283 0.11070378
0003e0 92 41 83 3e 2a fd f3 be 79 3c e9 3e d0 b0 fd be
       0.25635964 -0.47654086 0.4555395 -0.4954896
0003f0 ed 57 5e 3e 1a 44 9d 3e 81 e1 b4 3d 12 a3 28 3d
       0.21713229 0.3071602 0.08832074 0.04117114

dense_2.bias f4 [64]
000000 ed cf 02 bd 60 b7 0d 3b b6 49 16 bf 53 94 fb 3e
       -0.031936575 0.0021624193 -0.58706224 0.491366
000010 9d fe 1e bf 96 9d c6 3b af b4 5a 3e 14 d1 d2 be
       -0.6210726 0.006061266 0.21357988 -0.4117514
000020 ef e6 89 3e 7c 6f 29 be 1b 00 83 bd 4a 69 6d 3e
       0.26934 -0.16546434 -0.063965045 0.23184696
000030 9a 98 36 3e b6 31 20 3c e7 2e c1 bd 8c 4e 38 be
       0.1783165 0.009777477 -0.09432774 -0.17998713
000040 31 3e 00 3f a6 a9 9d 3e 1f 92 66 be 8e 5d 62 bf
       0.50094897 0.30793494 -0.22516678 -0.88424003
000050 05 39 2c bd d1 37 b1 3e f0 e5 21 bf a9 9f 09 3f
       -0.042046566 0.34612897 -0.6324148 0.5375925
000060 02 9c 90 3e 16 0e e0 bd 67 fa 28 be 5f 86 7e 3e
       0.28244025 -0.10940187 -0.16501771 0.24855946
000070 61 e4 ed be 44 df cd be ed aa fa 3b b7 ac cc 3e
       -0.46463302 -0.402094 0.0076497705 0.3997552
000080 d3 b4 a0 be 26 8b 2d 3e 75 c7 19 bf c6 ca 42 3b
       -0.31387958 0.16947612 -0.6006997 0.0029722913
000090 36 20 0f bd 4b e9 18 3e af c3 b3 3d 62 1f 08 3d
       -0.034942828 0.14932744 0.08777558 0.033233054
0000a0 6c 45 93 be 41 bf b2 be 63 0d 58 be 29 b2 1e be
       -0.28763902 -0.3491154 -0.21098857 -0.1549765
0000b0 98 90 36 3e 02 6b ea bc 8a f2 b2 be 84 32 cf 3d
       0.17828596 -0.028615478 -0.34950668 0.10117057
0000c0 d5 fd a2 bb d1 ea c0 bd 63 b3 04 bf 2a 5f cc 3c
       -0.004974107 -0.09419788 -0.5183622 0.024947722
0000d0 1e 94 fd be 1a 63 d1 be b1 e0 8b be ed b1 c0 bd
       -0.49527067 -0.4089592 -0.27319863 -0.09408937
0000e0 a2 52 a5 be 74 95 75 3d ea 26 19 bd fa 5c 2a bf
       -0.32289606 0.059956983 -0.037390627 -0.6654812
0000f0 75 5b fe 3d d0 79 4c bd 47 d4 2d 3d a4 84 77 3d
       0.12419788 -0.049920857 0.04243877 0.06042923

dense_3.weight f4 [64, 64]
000000 a0 f2 47 3f 74 4b 08 3f d4 8f 6b be 5e 6f 03 bf
       0.7810459 0.5324013 -0.23004085 -0.5134181
000010 69 c6 15 3e 2b 64 b7 3e 10 41 99 3e 0b d9 b6 3b
       0.14626469 0.3581861 0.2993245 0.0055800728
000020 20 ec 7f bf f6 83 3e bf 65 27 d4 3d 93 38 cb be
       -0.99969673 -0.74420106 0.103590764 -0.396916
000030 16 4a e2 be 03 c6 27 bf 9a dd 8d be 4b a2 83 bf
       -0.44197148 -0.65536517 -0.2770813 -1.0283903
000040 b3 73 d8 3c bc af 76 3d a5 93 b5 3d bd 9f bd be
       0.026422357 0.060226187 0.088660516 -0.37035933
000050 8a b6 8c be 5b 87 d5 3c 2d d7 11 be 6d cd 3b be
       -0.27483016 0.02606552 -0.1424224 -0.18340082
000060 70 4d 06 3e 1f bb ff 3e 07 d9 ed 3c 14 c2 c7 be
       0.13115478 0.4994745 0.02903415 -0.39015257
000070 60 1d 30 bf 7a 0f d0 3c 81 42 99 be fc 19 f4 3d
       -0.6879482 0.025398005 -0.2993355 0.119190186
000080 84 3a 75 bf b7 81 14 bf 44 81 4d 3e 24 b7 11 bf
       -0.9579241 -0.5801043 0.20068842 -0.56920075
000090 10 a0 a3 be 76 5a d4 bc 0e 68 02 be 4e e1 a1 3e
       -0.31958055 -0.025922041 -0.12735006 0.31617206
0000a0 79 9b 87 3e 6a ab 0e 3f e4 c0 7f 3e 1b 8c bc 3c
       0.26485804 0.5573031 0.24975926 0.023016026
0000b0 16 12 dd 3e d0 f5 77 be 8a c9 96 be f9 d2 6e 3e
       0.4317786 -0.24214864 -0.29450637 0.23322667
0000c0 e4 34 82 be d8 fd e4 3e 2b 87 0f 3f 24 5c 2b 3e
       -0.25430977 0.44724917 0.56065625 0.16734368
0000d0 96 7a f0 3e a9 1c 8f be f3 e9 db be 4a 41 8f bf
       0.46968526 -0.27951553 -0.42951927 -1.11918
0000e0 37 bd d7 be d3 3a ae 3e eb ce ad be 22 ab e1 3e
       -0.42136547 0.34029254 -0.33946928 0.44075876
0000f0 c0 a3 86 be 05 31 11 3f fb ac 04 be 91 b5 8a 3e
       -0.26296806 0.5671542 -0.12956612 0.2709165
000100 dd 80 1c be ae b8 01 bf 5b 39 61 bf fc 44 2d 3f
       -0.15283532 -0.50672424 -0.8797814 0.67683387
000110 27 a2 8c be 63 ef 2b 3e aa 74 86 be 2e 16 14 3f
       -0.27467462 0.16790538 -0.26260883 0.57846344
000120 b1 12 70 be 88 ba 6e be 39 55 e0 bf 36 8c 2a 3f
       -0.2344463 -0.23313344 -1.7526008 0.66620195
000130 f6 cd 89 3e 5b dd 85 be d0 28 03 bf ea b8 c9 bc
       0.26914948 -0.26145443 -0.5123415 -0.024624307
000140 bf c4 95 bd 24 aa 3e be 6f 52 86 3e 3a 6a 97 bf
       -0.07312917 -0.18619591 0.26234767 -1.1829293
000150 35 21 9a bb a7 d0 92 be cc 61 ec be 66 04 8d 3e
       -0.0047036656 -0.28674814 -0.46168363 0.27542418
000160 07 75 3f be 22 37 db bd c8 4a fb bd 7f a0 ca 3e
       -0.18696986 -0.10703875 -0.12270123 0.39575574
000170 e9 38 bd be 2a f6 87 3e 5f ab 34 3f 63 7f 1e be
       -0.36957482 0.26554996 0.7057399 -0.15478282
000180 76 ae 19 3d 34 8e 6b 3d ed c3 50 3e 37 5b 45 3c
       0.037519895 0.057508662 0.2038724 0.012045673
000190 14 7b 0f 3e 6b fb 6a be 76 0b 4d 3e f8 ef 60 bd
       0.14011794 -0.22947471 0.20023903 -0.054916352
0001a0 5a 32 45 bf c0 f6 5f bf c7 61 ba be 4b 86 78 be
       -0.77029955 -0.87485886 -0.36402723 -0.24269979
0001b0 27 4c 0e be a0 2d cc bc 18 18 2d bf e5 d2 ba 3d
       -0.13896237 -0.0249241 -0.6761489 0.09122256
0001c0 63 62 c9 be 42 06 9f 3e 06 6f ab bd 2b 8f 20 be
       -0.39332876 0.31059462 -0.083707854 -0.15679614
0001d0 97 5b ae 3e f1 85 fa 3e fd ee 40 3e 3a 22 83 bd
       0.34054253 0.48930314 0.18841167 -0.064030126
0001e0 f6 cc 1f 3f 43 0d 72 be 41 27 ad be 7f 15 3d bf
       0.6242212 -0.23637871 -0.3381901 -0.73860925
0001f0 52 64 ee be 47 e0 52 bd 0b 82 13 3f b7 21 a7 3e
       -0.46560913 -0.05148342 0.57620305 0.3264291
000200 01 95 ed bd a9 50 ee be 9f 2d a8 be f0 e9 36 bf
       -0.11600686 -0.46545914 -0.32847306 -0.7145071
000210 18 2d ad be 26 b1 03 3f 55 be bd be 0e e3 5b bf
       -0.33823466 0.5144218 -0.37059274 -0.8589333
000220 09 32 89 be 37 73 b2 bd e2 b2 c0 be fe e4 13 3d
       -0.26795986 -0.08713382 -0.37636477 0.036107056
000230 02 e3 e1 3e 2c bd 23 bf db c8 54 be 88 01 d5 3d
       0.44118506 -0.6396053 -0.20779745 0.10400683
000240 46 0f 63 3e 82 a7 a0 3e 13 2c af 3d 07 ab bb 3e
       0.22173795 0.31377798 0.08553328 0.3665392
000250 f4 14 a4 be fd 7d aa be 2b 64 2b bf c9 4f 50 3d
       -0.32047236 -0.33299246 -0.6694972 0.05085734
000260 68 65 ac be d3 42 2c bd 28 2c 5b 3f 3f f6 91 3e
       -0.33671117 -0.042055916 0.8561425 0.28508183
000270 2c c1 c7 3e 7f 4b b6 be e0 77 18 3e d9 85 80 bb
       0.39014566 -0.35604474 0.14889479 -0.003922206
000280 31 77 a3 3e e8 de 1c 3e 99 fe f6 3b 2b 12 14 bf
       0.31926873 0.15319407 0.0075376746 -0.5784022
000290 d0 68 9e be dc 36 4c be b9 71 5f bd b6 5b 8d 3e
       -0.3093934 -0.19942802 -0.054551814 0.27609032
0002a0 e5 73 40 3f 3b 91 11 be 78 ad 3d be f9 fd a4 bd
       0.7517684 -0.14215557 -0.18523204 -0.08056254
0002b0 7a d2 cc bc 3b fa f7 bd 5c d4 1d bd 2e cd e7 bd
       -0.025002707 -0.121082745 -0.0385326 -0.11318432
0002c0 40 7e f4 3e 03 72 76 be c1 34 5e 3e f0 3f ac 3e
       0.4775257 -0.2406693 0.21699812 0.3364253
0002d0 60 23 23 bf 53 9c e3 be 47 a2 07 3f 3c c5 3d 3f
       -0.6372585 -0.44455203 0.5298199 0.7412908
0002e0 89 e2 19 bf 6f d5 8d 3e cd 1a 84 be 5d a0 3a bd
       -0.6011129 0.277019 -0.25801697 -0.04556309
0002f0 8d 54 16 be a8 f2 46 bf 13 a9 d6 be 1b 31 6d 3f
       -0.14680691 -0.77714014 -0.41925868 0.92653054
000300 19 42 bd 3e 42 8f 37 3d d4 98 00 3e 37 c3 25 be
       0.3696449 0.044814356 0.125583 -0.1618775
000310 0b 7e 44 3f ea 8a 9f be 90 5e a0 ba 91 79 31 bf
       0.76754826 -0.3116067 -0.0012235213 -0.6932612
000320 61 90 20 3f e6 74 b0 be 2e d5 82 3d 05 44 33 3f
       0.62720305 -0.34464186 0.06388317 0.70025665
000330 2c ec 0f bf 7d 64 b6 bd 63 7a da 3e ce 71 bc be
       -0.56219745 -0.08905885 0.426715 -0.36805576
000340 2a 12 64 3d dc ca e7 3d 1a 97 b6 3e 22 49 60 bf
       0.055681385 0.11317989 0.35662156 -0.8761159
000350 9e 48 3e be c7 d8 0d 3d fd 65 5a 3f c8 bb d0 3e
       -0.18582389 0.034630563 0.8531187 0.40768266
000360 76 69 84 bd 23 0a a2 3e 36 a4 3f 3d 73 01 8e 3e
       -0.064654276 0.3164836 0.046787463 0.2773548
000370 4e fa 9c be aa 1c 78 3e db 7b 95 3e 32 07 9a 3e
       -0.30659717 0.24229684 0.29196057 0.30083615
000380 35 d4 63 3e 76 9f 0d bf 41 44 e1 be be 1e 58 3e
       0.2224892 -0.55321443 -0.43997386 0.21105477
000390 ce 41 b9 3e ce 45 89 3e 6b 8a 18 3f f0 3a 27 3f
       0.36183017 0.2681107 0.5958621 0.65324306
0003a0 a0 d9 31 3e fd 3a 87 3d 77 dd 73 3f b3 44 a9 be
       0.17368174 0.06603048 0.95259804 -0.33060226
0003b0 5b 7e 75 be 6b 50 3c bd f1 ea 11 bf a2 60 0f bf
       -0.23973982 -0.04597513 -0.5699912 -0.56006825
0003c0 84 22 4c bf 85 82 b4 3d c3 f0 78 bd 4a b8 f2 3e
       -0.79740167 0.08813957 -0.060776483 0.47406226
0003d0 49 d6 b0 3f 33 ee 62 bd e6 a0 91 be 12 d1 85 be
       1.3815395 -0.055402946 -0.28443068 -0.2613607
0003e0 56 e0 1d bf df b5 d8 3b e5 a1 22 3e 5e 25 8e bd
       -0.61670434 0.0066134776 0.1588207 -0.06940721
0003f0 c5 59 24 3e 6c c0 e9 be 83 05 c9 be 37 09 32 3e
       0.1604987 -0.4565462 -0.39262018 0.17386328

dense_3.bias f4 [64]
000000 a0 2e c5 3a 35 10 96 3e 71 c8 f1 bc d4 56 cf bd
       0.0015043803 0.2930924 -0.029514523 -0.10123983
000010 ca 7b 6a 3e 46 bd a6 be 98 c5 0d bf 60 b5 b4 be
       0.22898784 -0.3256628 -0.5537963 -0.35294628
000020 b3 71 c3 bd 04 ab cd 3d 2b b8 cd bd 36 eb fc 3e
       -0.09543171 0.10042384 -0.10044893 0.49398202
000030 20 14 10 be ef 82 9e bd 81 b9 b0 be bd 4f 52 bf
       -0.14070177 -0.07739817 -0.34516528 -0.8215292
000040 97 84 b5 be 12 bf 2f be fe 8a 90 3c e7 0c 6b bd
       -0.3545272 -0.17162731 0.017644402 -0.05738535
000050 58 75 6a 3e 4f b1 e8 3d 69 a4 55 bd ab 5e d4 bc
       0.22896326 0.11361944 -0.052158747 -0.025924047
000060 96 b3 13 bf 3b aa c2 3e a9 81 43 bf aa 0f 06 bf
       -0.576959 0.380205 -0.7636972 -0.5236765
000070 23 b6 62 bf 36 4d a3 3d 2a 2a 67 bf d5 9d 9b bf
       -0.8855917 0.07973711 -0.9029871 -1.2157542
000080 7c 01 57 be 6f e0 93 bd 7c d9 94 be 40 73 5f 3d
       -0.2099666 -0.07220542 -0.29072177 0.05455327
000090 91 44 d0 bd 64 88 05 3f 8c 5c 77 bc 44 37 2a 3e
       -0.10169328 0.5216124 -0.0150977485 0.16622645
0000a0 08 86 49 3d 84 3e 08 bf 05 69 a9 be a0 61 cb be
       0.049200088 -0.5322039 -0.33087936 -0.3972292
0000b0 a2 98 68 be 13 d0 a1 3e 13 c0 14 be 78 bc 72 3e
       -0.22714475 0.3160406 -0.14526395 0.23704708
0000c0 ec 05 9b bd f8 ab 66 be 04 7c 22 be 17 ad c6 be
       -0.07569489 -0.22526538 -0.1586762 -0.38803932
0000d0 b7 80 f3 be 7f df 01 be 5c fd 4f 3e 19 e8 c7 be
       -0.4755914 -0.12682913 0.20311493 -0.39044264
0000e0 54 2b 49 be 0f 4e f2 be ed 8b d8 bd 40 bb 05 bf
       -0.19645435 -0.4732518 -0.10573564 -0.52238846
0000f0 11 96 52 3c ca 9b e7 bd e6 67 2a 3e 54 0a ce bd
       0.012853161 -0.11309011 0.16641197 -0.10060564

dense_4.weight f4 [4, 64]
000000 4b 56 bd bc 07 59 1b 3f af 61 7e 3e bb 97 ff be
       -0.023112437 0.6068272 0.24841951 -0.4992045
000010 2f fc d5 3e 6c 1c 1b be a9 5c 83 bd 4f 37 06 3f
       0.41793963 -0.15147561 -0.06414158 0.52428144
000020 fc 51 43 3e 95 ea 5d bd f6 9e f0 bd ef 8d 16 bf
       0.19074243 -0.054178793 -0.117490694 -0.58810323
000030 bd 62 e9 be 43 7c b6 3e b0 c0 fa 3d 43 da 40 be
       -0.45583144 0.3564168 0.122437835 -0.1883326
000040 f1 b9 95 3e 37 6a f9 3e bb 7d c9 3d 61 d2 58 3e
       0.29243425 0.48713848 0.09838434 0.21174003
000050 63 8f 03 3e 72 7e 7a 3e 50 a9 9a 3e 23 75 20 bf
       0.12847666 0.24462298 0.302073 -0.62678736
000060 32 a1 8a 3f 20 93 b7 3e 03 c2 5a 3f f0 b0 c8 3e
       1.0830443 0.35854435 0.8545229 0.39197493
000070 5c 39 0a bf fc 02 fa bb 0d 07 20 3e 9c 8a 92 bd
       -0.53993773 -0.0076297503 0.1562769 -0.07155344
000080 ac 50 d9 be c6 60 bb bb f5 2b 32 3e dc 57 28 be
       -0.4244436 -0.0057183234 0.17399581 -0.16439766
000090 08 77 26 3e 97 d1 51 bb e6 fe ee 3e 41 7d e4 3d
       0.16256344 -0.0032015794 0.46678847 0.11156703
0000a0 73 49 24 be 38 1e 84 be 7d 03 ad 3d e8 a4 f1 be
       -0.16043644 -0.25804305 0.08447931 -0.47196126
0000b0 ae 7c be be 25 71 d8 be 74 d0 e0 be f4 49 f8 3e
       -0.37204498 -0.42273822 -0.43909037 0.48493922
0000c0 33 52 19 3f 5d 71 91 bd 9a df dc be 93 93 d6 be
       0.5989105 -0.071017005 -0.43139344 -0.41909465
0000d0 e9 bd 03 3f 68 cf ff be b4 fe f5 be e1 cd ca 39
       0.51461655 -0.49962926 -0.48045886 0.00038681834
0000e0 1e 49 0c bf f3 be c3 3e d9 3a 1b 3e 9d 9b f6 3c
       -0.5479907 0.3823162 0.15159167 0.0301035
0000f0 54 e7 9e 3e 62 00 9f bd 5e ae 64 3e 79 c9 0b be
       0.31035864 -0.07763745 0.22332141 -0.13651074
000100 f6 f3 ee 3e b7 a7 24 3e 48 43 fb 3d 7d 41 39 3e
       0.46670502 0.16079603 0.12268692 0.18091388
000110 9a 1f 4a 3e 1c b6 a3 be 78 75 b6 be d7 70 23 be
       0.19738618 -0.31974876 -0.35636497 -0.15961014
000120 83 a3 36 bf b1 d4 bf 3e aa 33 e6 be 8a 21 45 3e
       -0.7134325 0.37466958 -0.44961292 0.19251075
000130 f8 31 10 3e a2 e5 98 be 77 bf 65 3e ad 9f bd be
       0.14081562 -0.29862696 0.2243632 -0.37035885
000140 f8 c3 41 3f ef d2 88 bc 79 b2 1c 3f b3 ee 42 bf
       0.7568965 -0.016702143 0.6120983 -0.76145476
000150 3d f0 58 3f cc a0 0c 3e fe 00 dd be 75 80 11 3d
       0.84741575 0.13733214 -0.4316482 0.035522897
000160 79 0d 99 3e 01 4b 27 3f 65 c0 04 3f 48 2e c0 be
       0.2989309 0.6534882 0.5185607 -0.3753531
000170 43 fb 69 be d3 90 44 3d 45 d8 6c 3e 06 1b 8e bf
       -0.22849755 0.047989678 0.23129375 -1.1101997
000180 08 a4 da be 10 20 9c be 83 23 77 bf 8f 2b 72 3f
       -0.4270327 -0.30493212 -0.9653856 0.94597715
000190 71 8e 25 3e cd 5c da be f8 7a ec bd 08 8c dc bc
       0.16167618 -0.42648926 -0.11546892 -0.02692224
0001a0 17 5a 89 bb d5 aa 03 bf 3e c0 2b 3f 77 6f 87 be
       -0.0041916477 -0.51432544 0.67090213 -0.26452228
0001b0 bc 27 09 bb 66 67 e5 3e 56 db a7 3e 1c cb 26 3f
       -0.0020928225 0.4480545 0.32784528 0.6515367
0001c0 15 77 83 3d 1c 38 b9 bd 15 f1 48 bf 15 2a 12 3f
       0.064191975 -0.09043905 -0.7849286 0.5709546
0001d0 6f 62 99 3d 96 14 bd 3e 6c 63 9a bc 7b 82 30 3c
       0.07489478 0.36929768 -0.018846236 0.0107732965
0001e0 db ad 72 3f b4 7a b8 bc b8 a2 83 3d 02 ef 0b 3e
       0.9479653 -0.022519447 0.064275205 0.13665393
0001f0 83 a8 31 3f 97 4d 25 3b 84 05 18 3f ad e4 98 3e
       0.69397753 0.002522325 0.59383416 0.29861966
000200 2e 6a 7a bb f0 20 15 3d 63 0b 17 3e 96 3e c0 bc
       -0.003821026 0.036408365 0.14750437 -0.023467343
000210 c6 3c 46 be c2 2e 66 3f b1 fd bb be 99 8c 91 bd
       -0.1935912 0.89915097 -0.3671699 -0.07106895
000220 ad a8 91 bc 42 92 67 3d 1e f9 3b be 2a db b7 3b
       -0.017780626 0.056535967 -0.1835675 0.005610843
000230 4d 19 35 bf 15 da 9b bd 48 8d a6 3c ea 8d ac be
       -0.7074173 -0.07609955 0.02033104 -0.33702022
000240 c7 73 c2 3e 86 09 b0 3e 83 73 92 3e 5a 3e 71 3b
       0.37978956 0.34382266 0.28603753 0.0036810846
000250 34 d3 a0 bc 0f d1 81 be 93 63 19 be a0 82 3d bd
       -0.01963196 -0.25354812 -0.14979391 -0.04626715
000260 e0 fe 5d 3e fd 44 17 bd 7e fa 63 be 7a 72 0d 3e
       0.21679258 -0.036931027 -0.22263524 0.138132
000270 da 39 3a 3f b8 a1 c5 3d de 29 45 bf 80 12 b9 3e
       0.72744524 0.09649986 -0.7701701 0.36146927
000280 14 ca ac be 43 c5 40 be 3e c3 d7 3b e7 67 17 3c
       -0.33747923 -0.1882525 0.006584554 0.009241081
000290 91 fe 24 bc 52 b6 eb bc 88 6b c4 be c2 05 7c 3d
       -0.010070459 -0.02877346 -0.3836329 0.06152893
0002a0 db 09 ab bb c7 6c 2b 3d 0c 9b c4 3d be 90 aa 3e
       -0.0052196807 0.041851785 0.09599885 0.33313555
0002b0 14 cc 19 3b 00 f8 b9 3c bc a5 04 3d af 32 a1 3e
       0.0023467587 0.022701263 0.03238462 0.3148398
0002c0 8a 99 c4 bc f2 26 02 3f b0 1f 2f bd dd 37 0a bd
       -0.023998994 0.50840676 -0.04275483 -0.03374468
0002d0 47 62 32 be 24 6a 4b 3e 97 31 60 bb bd a2 32 3e
       -0.17420302 0.19864708 -0.0034209245 0.17444892
0002e0 c6 77 90 3c 87 3d 2b 3d 1c 0a 0e 3e e1 4c 67 be
       0.017635237 0.041806724 0.13871044 -0.2258792
0002f0 86 a1 6b 3d 87 ec 30 3c d6 7c ce bc 21 48 38 3e
       0.057527088 0.01079858 -0.02520601 0.17996265
000300 78 ae ee 3b bf 5a 26 be 3d e0 d8 3d d1 bf a0 bd
       0.007283982 -0.16245554 0.10589645 -0.07849086
000310 6f 30 e5 3e 00 c7 04 bd d5 53 bb be 43 b4 0c bf
       0.44763514 -0.032416344 -0.36587396 -0.5496256
000320 61 61 e1 3d f8 f0 9d 3d 83 94 f5 3e 9a 90 78 bd
       0.11004902 0.07711977 0.47964868 -0.060684778
000330 6f e0 83 be 95 1e 20 3e 07 8a 0c 3f 12 06 2b 3e
       -0.25757167 0.15636666 0.54898113 0.16701534
000340 1c ad 3e be 4e 43 ad 3e 06 5f a2 3e eb 60 0a 3d
       -0.18620723 0.33840412 0.31713122 0.033783834
000350 80 56 4b be a5 51 ba 3e ab d4 85 bd 3e cb 69 3d
       -0.19857216 0.36390415 -0.06534704 0.057078592
000360 88 b4 1a be 35 18 1f bd 82 24 2a 3f ab 84 17 3f
       -0.1510793 -0.038841445 0.66461957 0.5918681
000370 d1 6b c7 3d 8e 4c cc 3b d6 a8 6f bf 53 de 4d bf
       0.09737361 0.006234712 -0.93617 -0.80417365
000380 b9 fe 1c 3e 71 19 ea 3e 3f 90 50 3d 8d d8 c1 bd
       0.15331544 0.45722535 0.050918814 -0.09465132
000390 54 40 bc 3e 35 df 28 be 91 16 04 3f 13 19 b3 bd
       0.36767828 -0.16491397 0.51596934 -0.08745017
0003a0 d9 63 c2 3e 07 b3 24 be 99 92 2a be e9 37 46 3e
       0.37966803 -0.16083919 -0.16657485 0.19357266
0003b0 7e 35 8a 3d 9d f5 5a bd 3a 9c de bd 56 64 2f 3e
       0.06748484 -0.05345689 -0.108696416 0.17128119
0003c0 e3 bf e4 bd ed 7d c1 3d ce eb 76 3e 99 57 25 bd
       -0.11169412 0.094478466 0.2411339 -0.040366743
0003d0 c3 19 8d bd 5c b7 a7 be b7 ed 1c 3d 67 24 a8 3d
       -0.06889679 -0.3275708 0.03831264 0.08210068
0003e0 25 d7 59 be cf 33 23 bf 2a 96 42 3e 84 30 7b bd
       -0.21273477 -0.6375093 0.19002596 -0.061325565
0003f0 d5 85 76 3d 3a 64 da bb 06 f1 95 bd 88 30 df bd
       0.060186226 -0.00666478 -0.07321362 -0.108979285

dense_4.bias f4 [4]
000000 fd c3 09 be 5e 8f 8c be bf 04 39 be b9 0e 01 bf
       -0.1345367 -0.2745313 -0.18068217 -0.5041309
