actor_model.pt (torch_old, 44314 bytes, 8 tensors)

dense_1.weight f4 [64, 33]
0.18066318 0.16200799 -0.14954115 -0.3781333 0.101392165 -0.20454316 0.60154384 0.22633198
0.28281704 -0.034205593 -0.16947943 -0.118410744 -0.14580809 -0.3054163 -0.28662646 0.25353208
-0.16831137 -0.17533168 0.07790741 -0.026653197 0.031446304 0.04554139 0.39470735 -0.1540924
-0.061150473 0.12715356 -0.0077966982 0.61651987 -0.21566822 -0.044070408 -0.8458695 0.15040323
-3.5151725 -0.3218635 0.6353746 0.666744 -0.7935181 -0.0777902 -0.5161893 -0.12559132
0.25946122 -0.27774832 0.0283104 -0.23283242 -0.06238588 0.056128323 1.0230579 0.4228358
-0.66101813 0.18151538 0.33450994 0.75929147 -0.07745267 0.049055666 -0.45344707 0.08820042
0.34185296 0.20267506 -0.06733994 -0.4779487 0.786968 0.10753394 -0.103115335 -0.6556208
0.09556377 0.6851495 -0.276814 0.34559596 0.039560653 0.4960682 0.6098594 1.0418006
-0.30746114 0.17924945 0.032779846 0.0699341 -0.1619692 -0.06012533 -0.060557242 -0.049263414
-0.7789757 0.10726979 0.18333761 0.076744035 -0.36610648 0.26537 -0.081685446 0.2748244
-0.08705678 0.041256636 -0.08383036 -0.018172674 0.45630965 0.34276623 0.06700597 -0.11292364
-0.19076821 0.036434695 -0.3936546 -0.02380226 0.21403737 -0.032904625 0.34429088 -0.012678546
-0.45475942 -0.45599592 -0.13649024 -0.022091676 -0.07310163 -0.16914947 -0.022008188 -0.14249331
-0.44397065 0.41017222 0.52794635 0.23260504 -0.106235795 -0.22757837 0.0774487 -0.15720217
0.055006016 -0.026081901 -0.31937617 -0.025220184 0.089850366 0.15531848 -0.15988593 -0.45271128
-0.060898177 -0.026367987 -0.037028953 0.54225576 0.14098081 -0.49895638 0.022836305 -0.4344216
-0.2740087 0.109535374 -0.009528057 -0.2513155 0.22787714 0.024832763 0.08287387 0.047047984
0.09852279 -0.31344914 0.5856599 -0.1012639 -0.5203827 0.08875099 0.1231725 -0.095941
-0.09145728 -0.06427376 -0.08372569 0.032700174 0.2855299 0.038317297 -0.2243759 -0.24598627
-0.12071634 -0.034178883 0.019195823 -0.15030524 -0.21281995 0.14326338 0.4274942 -0.018416977
-1.0352788 1.0901619 -0.8234466 0.5232774 -0.17452206 0.43052596 -0.33967808 0.011099921
0.11214639 0.2711722 0.25438115 -0.08699486 -0.33996797 -0.15568568 -0.15315002 -0.13012408
0.078783564 -0.26944658 0.10626625 0.07123004 0.42226663 0.090004385 -0.2621918 0.00134906
0.53338057 0.4072621 -0.12271328 -0.75200087 -0.10143601 -1.4117861 -0.06674431 0.10019785
0.3645433 -0.21082002 -0.106936745 0.13810907 -0.4081953 0.02474074 -0.15456943 -0.05995284
0.1766816 -0.024464378 0.030679846 0.28800768 -0.2858875 -0.06286968 0.15851563 -0.13788228
-0.34639916 0.27904037 -0.01443381 0.01846315 -0.013973487 0.030980792 -0.09796211 0.08571064
-0.06916383 0.7506591 -0.43454924 -0.049414426 -0.72283256 -0.02577871 2.894935 -0.17850599
0.58308595 0.081623316 -0.37651563 0.08742248 0.27737385 0.6153178 -0.006787925 -0.8641893
-0.24530593 -0.22349623 -0.02311048 0.273279 -0.027751673 0.11925363 0.029104946 0.59329265
-0.019076787 -0.015698789 0.016232958 0.30702478 -0.18521483 0.2885136 0.504387 0.5101473
00000000: c5ff 383e 6ce5 253e 5121 19be b09a c1be
00000010: b2a6 cf3d c373 51be c7fe 193f 92c3 673e
00000020: 65cd 903e 2a1b 0cbd 048c 2dbe 5581 f2bd
00000030: b74e 15be 865f 9cbe b4c0 92be f5ce 813e
00000040: d159 2cbe 268a 33be ec8d 9f3d ce57 dabc
00000050: d7cd 003d 9c89 3a3d 1517 ca3e 66ca 1dbe
00000060: eb78 7abd 8b34 023e 727b ffbb 3fd4 1d3f
00000070: 21d8 5cbe 2c83 34bd e78a 58bf 4e03 1a3e
00000080: 96f8 60c0 4bcb a4be e9a7 223f bcaf 2a3f
00000090: 0124 4bbf 7850 9fbd fb24 04bf 039b 00be
000000a0: 1ad8 843e 0735 8ebe 36eb e73c 9f6b 6ebe
000000b0: 5688 7fbd d0e6 653d 90f3 823f ef7d d83e
000000c0: 7c38 29bf 2bdf 393e e344 ab3e ed60 423f
000000d0: 819f 9ebd 98ee 483d 372a e8be 6ca2 b43d
000000e0: 5a07 af3e 0d8a 4f3e 86e9 89bd b1b5 f4be
000000f0: bc76 493f c13a dc3d 222e d3bd c4d6 27bf
00000100: f0b6 c33d f565 2f3f 91ba 8dbe f4f1 b03e
00000110: 5a0a 223d a7fc fd3e bf1f 1c3f b959 853f
00000120: 8c6b 9dbe 2b8d 373e 2944 063d 9c39 8f3d
00000130: 41db 25be fa45 76bd df0a 78bd 6fc8 49bd
00000140: f46a 47bf 43b0 db3d dbbc 3b3e fa2b 9d3d
00000150: 4f72 bbbe 94de 873e b34a a7bd c9b5 8c3e
00000160: d34a b2bd b8fc 283d 40af abbd dcde 94bc
00000170: 6ba1 e93e 0e7f af3e 6d3a 893d 8244 e7bd
00000180: be58 43be 8c3c 153d 198d c9be f5fc c2bc
00000190: 9d2c 5b3e 00c7 06bd e546 b03e adb9 4fbc
000001a0: 3ad6 e8be 4c78 e9be 19c4 0bbe 9af9 b4bc
000001b0: 4fb6 95bd 8535 2dbe 844a b4bc c4e9 11be
000001c0: 1f50 e3be 1802 d23e 7e27 073f 0430 6e3e
000001d0: 2792 d9bd 4e0a 69be 6d9d 9e3d 9bf9 20be
000001e0: fd4d 613d b6a9 d5bc 4685 a3be 8f9a cebc
000001f0: 7803 b83d cf0b 1f3e 23b9 23be c6c9 e7be
00000200: 5e70 79bd ad01 d8bc acab 17bd 46d1 0a3f
00000210: 465d 103e 3677 ffbe 3413 bb3c 826c debe
00000220: de4a 8cbe 1554 e03d 911b 1cbc 6dac 80be
00000230: a058 693e 146e cb3c c7b9 a93d 63b5 403d
00000240: 51c6 c93d 687c a0be cfed 153f 7363 cfbd
00000250: cd37 05bf 14c3 b53d dd41 fc3d b77c c4bd
00000260: f44d bbbd f6a1 83bd 6078 abbd 9ef0 053d
00000270: fa30 923e 99f2 1c3d ccc2 65be d3e3 7bbe
00000280: 213a f7bd 28ff 0bbd 8f40 9d3c 9ee9 19be
00000290: 79ed 59be a3b3 123e 85e0 da3e 33df 96bc
000002a0: 0484 84bf 6d8a 8b3f 65cd 52bf 82f5 053f
000002b0: e9b5 32be e66d dc3e 49ea adbe 71dc 353c
000002c0: 02ad e53d 15d7 8a3e 3f3e 823e 5c2a b2bd
000002d0: 4810 aebe 116c 1fbe 5cd3 1cbe 3f3f 05be
000002e0: 4759 a13d e7f4 89be 1fa2 d93d 0ee1 913d
000002f0: 5533 d83e 3854 b83d 013e 86be f1d2 b03a
00000300: a18b 083f a884 d03e 1a51 fbbd 2183 40bf
00000310: afbd cfbd 68b5 b4bf 3eb1 88bd 8834 cd3d
00000320: 6ba5 ba3e 34e1 57be a701 dbbd 776c 0d3e
00000330: f9fe d0be 18ad ca3c 7347 1ebe 1c91 75bd
00000340: 05ec 343e 8569 c8bc 4d54 fb3c be75 933e
00000350: d95f 92be d2c1 80bd ec51 223e 0331 0dbe
00000360: 3b5b b1be 61de 8e3e c97b 6cbc 0840 973c
00000370: 0df1 64bc 6ecb fd3c 5ca0 c8bd 0f89 af3d
00000380: c4a5 8dbd 322b 403f 3d7d debe c866 4abd
00000390: 8e0b 39bf e02d d3bc 9d46 3940 46ca 36be
000003a0: 1f45 153f 202a a73d a8c6 c0be 8f0a b33d
000003b0: f203 8e3e 7885 1d3f 3e6d debb 833b 5dbf
000003c0: 7a31 7bbe 32dc 64be 3052 bdbc 3aeb 8b3e
000003d0: 7a57 e3bc 3f3b f43d 7f6d ee3c 07e2 173f
000003e0: ec46 9cbc bf9a 80bc fbfa 843c 5a32 9d3e
000003f0: f5a8 3dbe 0eb8 933e 821f 013f 0399 023f

dense_1.bias f4 [64]
-0.7706698 -0.5530677 -0.25880173 0.08200701 0.028020108 -0.7494585 -0.5387075 -0.4550445
-0.22475849 0.42551783 -0.35895485 -0.25127032 -0.5704929 0.65787846 -0.21326624 -0.052840766
-0.1703108 0.5450592 -0.51218265 -0.4048106 -0.4433376 -0.37673643 0.38279137 -0.40242273
-0.3077099 0.7454193 0.41025683 0.20278813 -0.36181405 0.39328766 -0.48716375 0.00957915
-0.023828272 -0.19732961 0.03552182 -0.3696649 0.48403475 -0.124995455 0.005804976 0.2589992
-0.09290949 -0.468969 0.17918104 -0.43744394 0.5437755 -0.40570968 0.16186845 -0.019627986
0.43300918 -0.39252007 0.027267318 -0.07178823 -0.4854641 -0.3321697 -0.21920754 0.3198325
-0.19712563 -0.16439165 -0.40617156 -0.4238669 0.8852552 0.05608981 0.0190397 -0.3681451
00000000: 9e4a 45bf d895 0dbf a981 84be 4bf3 a73d
00000010: 6d8a e53c 83dc 3fbf bce8 09bf 98fb e8be
00000020: 1727 66be 79dd d93e eec8 b7be 81a6 80be
00000030: d30b 12bf b96a 283f 7762 5abe 8f6f 58bd
00000040: f465 2ebe 0089 0b3f 671e 03bf 5643 cfbe
00000050: 25fd e2be 99e3 c0be 3bfd c33e 5a0a cebe
00000060: 278c 9dbe cdd3 3e3f 2f0d d23e b1a7 4f3e
00000070: b13f b9be 005d c93e 876d f9be def1 1c3c
00000080: 8233 c3bc c610 4abe 547f 113d b844 bdbe
00000090: 67d3 f73e 9efd ffbd ab37 be3b 8b9b 843e
000000a0: 5547 bebd b41c f0be 3c7b 373e a7f8 dfbe
000000b0: df34 0b3f 2eb9 cfbe d8c0 253e dfca a0bc
000000c0: 61b3 dd3e 64f8 c8be b65f df3c b505 93bd
000000d0: c08e f8be 2612 aabe f177 60be 16c1 a33e
000000e0: 4ddb 49be 4956 28be b8f5 cfbe 1505 d9be
000000f0: 16a0 623f 6ebe 653d 25f9 9b3c 847d bcbe

dense_2.weight f4 [64, 64]
-0.46238688 0.4143949 -0.55856067 0.38678795 -0.21902695 -0.38282356 0.25795346 0.23009174
0.593007 -0.05371761 -0.82842547 -0.30658478 -0.18521395 -0.105497286 -0.16573888 -0.7486092
-0.25972205 -1.0782887 -0.6131457 0.46326545 -0.16432747 0.11624766 0.30566067 0.03555841
0.07602033 0.32081228 0.07472274 0.22043341 -0.24227706 0.14622395 0.36851102 0.24154347
-0.84354645 -0.121309124 -0.73225445 0.024207998 -0.024057932 -0.79489416 -0.1181427 0.037234575
0.063100696 -0.42929745 -0.1679812 -0.5694559 0.1118729 -1.4077972 0.1061211 0.13903397
-0.22687207 0.1902539 0.18480687 0.1763395 -0.026160708 -0.9569521 -0.058488633 0.07658852
-0.06378245 -0.23428313 -0.57842535 -0.32204595 0.0972205 0.11629252 0.24432835 -0.20718868
0.5970448 -0.019144502 -0.036018085 -0.44542968 -0.4960063 0.008399748 0.19715138 0.6621114
0.92536265 -0.37983754 0.1951268 0.15605961 -0.13709313 0.12698399 -0.49502647 -0.09600139
0.36140803 -0.026039213 0.52466416 0.79146296 -0.57275367 -0.0995839 0.27681488 0.2065113
-0.1104239 -0.27730963 0.10630029 -0.20000684 0.2790902 0.07589492 0.5322956 0.20535983
0.08131216 0.55077964 -0.18920378 -0.30530065 -0.36738124 0.1450189 -0.41145924 -0.27362847
-0.24836205 -1.0694367 0.22551017 -0.45929372 0.13687092 0.8095379 -0.38147673 0.049863297
-0.057440538 -0.20020324 0.100474104 -0.50589615 0.69495636 0.2979574 0.01670614 0.3572
0.45920157 0.8279074 -0.28520834 -0.25667667 -0.30781826 -0.38040215 -0.56825763 -0.39719447
0.43536243 -0.37317848 -0.91921246 -0.2690071 0.18749669 -0.05456014 -0.4940411 0.27011436
0.7732973 -0.17101781 0.18007073 -0.29031816 0.3852723 0.1234613 -0.13435733 0.06725115
-0.017522315 0.4706862 -0.02956178 -0.21026275 0.36277443 0.26147008 -0.058309715 0.19434024
-0.024586804 -0.013507693 -0.627562 0.21612883 -0.6167688 -0.2627531 0.10308521 0.60535854
-0.02092117 0.1543625 -0.43020883 0.16925134 0.008867985 0.038648967 -0.22806261 0.29596028
-0.09029454 -0.48350757 -0.20881519 -0.14247963 0.14182645 0.014927989 -0.18482265 0.45579162
-0.12611686 0.5510176 -0.30080277 0.12192938 0.26539317 0.14548178 0.057327367 -0.0604472
0.033916365 0.5156675 -0.17253068 0.5711493 -0.019464195 0.29501715 -0.15381567 0.08968383
0.020121818 0.11353707 0.06844101 -0.3574908 -0.054968126 0.21364668 -0.04366374 -0.08563128
0.5162682 -0.31925 0.3484329 0.31261453 -0.71845627 -0.26687258 -0.06682885 -0.015399184
0.43296772 -0.5407447 -0.6276474 -0.043146957 0.012761791 0.014944255 -0.16125697 -0.20272708
0.18949695 0.32398117 -0.38165778 0.41267937 0.06177433 -0.15058854 0.03807815 -0.62663805
-0.26124296 0.64187723 -0.92993087 -0.004838495 0.25157997 -0.5412915 -0.4060643 0.6356418
0.7048746 -0.52437526 -0.52183104 0.66083145 -0.6599771 -0.47731814 -0.15226695 0.26013282
0.49176374 0.17562297 -0.078943215 0.13033302 0.14082012 0.29206815 -0.33556822 -0.44126585
0.07033028 -0.6026146 -0.220542 0.31817192 -0.08448172 -0.6728812 0.5447435 0.3594447
00000000: f9bd ecbe 912b d43e d5fd 0ebf 1209 c63e
00000010: 9a48 60be 7301 c4be 7a12 843e 2b9d 6b3e
00000020: 4fcf 173f ff06 5cbd b113 54bf aef8 9cbe
00000030: baa8 3dbe f60e d8bd 74b7 29be daa4 3fbf
00000040: 4afa 84be 5d05 8abf 1ef7 1cbf 2131 ed3e
00000050: 7645 28be 4113 ee3d 8e7f 9c3e b2a5 113d
00000060: 8cb0 9b3d 8241 a43e 3c08 993d 4cb9 613e
00000070: 7a17 78be bbbb 153e 7aad bc3e 2c57 773e
00000080: a9f2 57bf eb70 f8bd 0775 3bbf da4f c63c
00000090: 2415 c5bc 2f7e 4bbf cdf4 f1bd 4883 183d
000000a0: f03a 813d e0cc dbbe 4403 2cbe ddc7 11bf
000000b0: 9e1d e53d b332 b4bf 0556 d93d ec5e 0e3e
000000c0: 2751 68be ebd1 423e 033e 3d3e 5892 343e
000000d0: fb4e d6bc d0fa 74bf c791 6fbd 71da 9c3d
000000e0: 60a0 82bd ebe7 6fbe af13 14bf 35e3 a4be
000000f0: 8b1b c73d c62a ee3d 3631 7a3e 4529 54be
00000100: eed7 183f eed4 9cbc b387 13bd 5c0f e4be
00000110: 8af4 fdbe 199f 093c 0de2 493e 2280 293f
00000120: 91e4 6c3f 117a c2be 52cf 473e 17ce 1f3e
00000130: 2462 0cbe 1708 023e 1c74 fdbe 609c c4bd
00000140: 790a b93e 3050 d5bc 6450 063f 519d 4a3f
00000150: fc9f 12bf a5f2 cbbd aeba 8d3e b377 533e
00000160: ed25 e2bd 87fb 8dbe f7b3 d93d 98ce 4cbe
00000170: e9e4 8e3e cc6e 9b3d 8644 083f d949 523e
00000180: fd86 a63d e5ff 0c3f a3be 41be 5e50 9cbe
00000190: 6519 bcbe d67f 143e c9aa d2be 0819 8cbe
000001a0: 9f52 7ebe 4de3 88bf 23ec 663e 8c28 ebbe
000001b0: e427 0c3e e03d 4f3f eb50 c3be 753d 4c3d
000001c0: c546 6bbd 1402 4dbe 5ec5 cd3d 6982 01bf
000001d0: a9e8 313f df8d 983e 51db 883c ebe2 b63e
000001e0: 781c eb3e bdf1 533f d406 92be 206b 83be
000001f0: 5b9a 9dbe 12c4 c2be 5579 11bf 135d cbbe
00000200: d3e7 de3e 4011 bfbe 8251 6bbf 4cbb 89be
00000210: 22ff 3f3e 747a 5fbd f4f2 fcbe 6e4c 8a3e
00000220: d0f6 453f 4b1f 2fbe 7664 383e 95a4 94be
00000230: 6942 c53e 47d9 fc3d f894 09be f9ba 893d
00000240: f58a 8fbc c8fd f03e 8c2b f2bc 1e4f 57be
00000250: 92bd b93e 68df 853e 2bd6 6ebd 2101 473e
00000260: 446a c9bc 5f4f 5dbc e7a7 20bf e050 5d3e
00000270: 8fe4 1dbf 9387 86be 571e d33d c7f8 1a3f
00000280: e062 abbc 3411 1e3e 5544 dcbe 3950 2d3e
00000290: 064b 113c 614e 1e3d 3f89 69be 1b88 973e
000002a0: 58ec b8bd 4e8e f7be a6d3 55be 2ee6 11be
000002b0: f43a 113e 8694 743c 2642 3dbe 855d e93e
000002c0: c724 01be 7d0f 0d3f d202 9abe 1cb6 f93d
000002d0: 9de1 873e 2df9 143e 1ad0 6a3d 7c97 77bd
000002e0: e3eb 0a3d c902 043f e2ab 30be d736 123f
000002f0: 6073 9fbc 7d0c 973e db81 1dbe 28ac b73d
00000300: 83d6 a43c 2086 e83d cd2a 8c3d 0909 b7be
00000310: 4226 61bd 32c6 5a3e c0d8 32bd 745f afbd
00000320: 272a 043f bc74 a3be cc65 b23e 030f a03e
00000330: c0ec 37bf 86a3 88be 90dd 88bd dc4c 7cbc
00000340: f2ad dd3e 3f6e 0abf 80ad 20bf ddba 30bd
00000350: d516 513c c0d8 743c 8c20 25be b097 4fbe
00000360: 7d0b 423e dce0 a53e a668 c3be b64a d33e
00000370: 1407 7d3d e233 1abe d6f7 1b3d 5a6b 20bf
00000380: a3c1 85be 1152 243f f30f 6ebf 3d8c 9ebb
00000390: 17cf 803e 1492 0abf a9e7 cfbe 6cb9 223f
000003a0: a972 343f 753d 06bf b896 05bf 402c 293f
000003b0: 42f4 28bf 0b63 f4be deeb 1bbe 2130 853e
000003c0: 75c8 fb3e 82d6 333e fbac a1bd 0576 053e
000003d0: 2633 103e f589 953e 99cf abbe 99ed e1be
000003e0: 5209 903d f344 1abf c3d5 61be 6ee7 a23e
000003f0: c104 adbd f141 2cbf 4f74 0b3f 2309 b83e

dense_2.bias f4 [64]
0.33867297 -0.19275174 0.1206357 0.028474865 -0.54736733 -0.26014325 -0.46248543 -0.30580166
0.44933036 0.42348653 -0.12843372 -0.038479198 -0.84143907 -0.034744117 -0.19989043 0.068090096
0.4127588 0.15798075 -0.0012657206 0.037335046 -0.18039215 0.15032227 0.36499825 -0.5147174
-0.3328484 -0.06352819 0.20346884 0.432466 0.3432672 0.22467391 -0.23795483 -0.17224954
-0.4933322 -0.48480847 0.07614366 -0.41761985 -0.655596 -0.3667448 0.10894439 0.09912239
-0.015995782 0.06783027 -0.013557375 -0.5058865 0.17940862 0.11360615 -0.19875851 -0.26495245
0.13932972 0.27008533 -0.52716446 -0.78019434 -0.036192674 -0.15046673 0.34467238 -0.3074237
0.5284088 -0.350205 0.25445795 -0.15064979 -0.21944252 -0.5461202 0.27241322 -0.023493493
00000000: 8b66 ad3e b660 45be da0f f73d 1f44 e93c
00000010: 4420 0cbf 7f31 85be e4ca ecbe 0992 9cbe
00000020: a10e e63e 3ad3 d83e 2184 03be 5d9c 1dbd
00000030: 8d68 57bf d94f 0ebd 14b0 4cbe d272 8b3d
00000040: 1f55 d33e b5c5 213e 89e6 a5ba a2ec 183d
00000050: b8b8 38be 15ee 193e 0de1 ba3e 85c4 03bf
00000060: 1b6b aabe 111b 82bd 235a 503e 2f6c dd3e
00000070: b8c0 af3e eb10 663e 6eaa 73be 2f62 30be
00000080: 0a96 fcbe d138 f8be 35f1 9b3d 45d2 d5be
00000090: 24d5 27bf f9c5 bbbe 3d1e df3d ae00 cb3d
000000a0: 9609 83bc 99ea 8a3d c11f 5ebc c781 01bf
000000b0: e5b6 373e 57aa e83d 5a87 4bbe d9a7 87be
000000c0: 73ac 0e3e a048 8a3e 40f4 06bf d1ba 47bf
000000d0: c53e 14bd f313 1abe e678 b03e a466 9dbe
000000e0: cd45 073f 124e b3be 5048 823e f043 1abe
000000f0: 8ab5 60be 89ce 0bbf bf79 8b3e 6d75 c0bc

dense_3.weight f4 [64, 64]
0.6404484 0.6114532 0.21808936 -1.0496132 0.07716727 0.9424466 -0.4644907 -0.7758496
-0.29221213 -0.27909565 -0.06917927 -0.4614785 -0.097558096 -0.5765936 -0.60245633 0.15810809
0.17831281 -0.3629221 -0.5453523 0.1603903 -0.19173697 -0.31742144 -1.1939988 -0.25495788
-0.025803309 0.17357427 -0.09474405 -0.49243328 -0.34062448 -0.77825814 -0.3983054 -0.10467186
0.70033664 -0.82728714 -0.25925523 -0.38054562 -0.30431655 0.008098861 0.516371 0.17848185
-0.026754055 0.19440034 -0.100615196 -0.7072373 -0.09133551 0.20101698 0.23356692 0.08869968
0.35462192 0.11078904 -0.29099125 -0.3117337 -0.43746012 -0.15265773 -0.1553468 0.122878
-0.24420361 -0.00399804 -0.017428981 0.25619733 0.42743278 0.61230844 0.6611452 0.37563494
-0.23805837 -0.1382472 -0.14821534 -0.01647967 -0.32818875 0.37655723 0.44300905 0.07054864
0.24220763 -0.034564987 -0.84082866 -0.28107098 -0.7664408 0.7625169 -0.114454314 -0.21259068
0.03359825 0.34447002 0.42752415 -0.56757367 0.39062345 -0.032831363 0.18287858 0.13239622
-0.0756451 -0.37703264 0.25322753 0.023715144 0.124321975 0.09923076 -0.3170593 0.058648843
-0.014014769 -0.17177206 -0.009013019 0.461604 -0.10000058 -0.16372478 0.7210265 0.032093983
-0.05027655 -0.20226566 -0.05149394 0.0723854 -0.21209976 -0.094998136 -0.5232311 -0.090948656
0.27840683 0.7977778 -0.17601398 -1.2947001 0.18847081 -0.12214059 0.80875725 -0.33874363
0.41360867 -0.0822643 0.12454453 -0.28552863 0.011167519 0.03166957 0.5591618 -0.28014645
-0.14062986 -0.27675992 -0.82807297 -0.29239088 0.0071355994 -0.058062915 0.09191219 -0.4959667
0.078319296 -1.256911 -0.03680261 -0.32075185 0.23516813 -0.7244443 0.7786532 0.06745594
0.31353787 0.20335059 -0.2438809 -0.40977672 0.8295849 0.633294 -0.57245153 0.48183647
-0.50186694 0.23745315 0.15325987 0.35673082 -0.1308676 0.10151801 -0.31077558 0.09570161
-1.3415419 0.02727552 -0.11886165 -0.85274655 0.5821703 -0.026235072 0.7981426 -0.85139525
-0.59472466 0.11139402 0.38183093 -0.4671755 0.31825 -0.15673594 0.17444213 0.39062026
-0.27527258 0.19850585 0.39071336 0.018788166 -0.55474734 -0.54148597 -0.77598137 0.22292906
-0.077918746 0.25091618 -0.07855102 -0.28175387 -0.66545117 0.6842924 -0.264017 0.71852696
0.6423268 -0.21043013 0.16461147 0.35918647 -0.07551713 0.21159032 -0.19371903 -0.5933147
0.104140684 0.059854236 0.03943606 -0.22169083 0.09414509 0.19646206 -0.11622248 0.6889159
0.8504504 -0.105285466 -0.08464945 -0.06715423 -0.23046362 0.2723769 -0.8338398 -0.027807934
0.1467262 -0.038279444 -0.13117799 -0.277335 0.19513635 0.48143446 0.1410904 -0.7947928
-0.7865159 -1.2239265 -0.48608452 0.058064744 0.3423964 -0.5988529 0.5075914 0.26297566
-0.30614048 -0.088275425 0.32928848 -0.17287335 0.5652681 -0.39909527 0.25228375 -0.13070777
0.5339632 0.017744455 -0.8349427 -0.2554883 0.24737392 -0.75462866 -0.46489835 -0.9163929
0.13499105 -0.039848577 -0.060861662 -0.43177512 -0.36481366 0.49127406 -0.32156456 0.15853012
00000000: 6df4 233f 3288 1c3f d152 5f3e ba59 86bf
00000010: e009 9e3d 2e44 713f bad1 edbe 149e 46bf
00000020: d49c 95be a0e5 8ebe dcad 8dbd e946 ecbe
00000030: 8acc c7bd a39b 13bf 943a 1abf 16e7 213e
00000040: a297 363e edd0 b9be 359c 0bbf 5b3d 243e
00000050: b256 44be 1085 a2be f4d4 98bf d789 82be
00000060: 7661 d3bc 74bd 313e 2b09 c2bd 3720 fcbe
00000070: 5566 aebe ed3b 47bf afee cbbe 335e d6bd
00000080: 4349 333f 17c9 53bf 1abd 84be e0d6 c2be
00000090: 61cf 9bbe 16b1 043c e430 043f f2c3 363e
000000a0: 522b dbbc e210 473e 570f cebd 810d 35bf
000000b0: 1d0e bbbd 65d7 4d3e 2b2c 6f3e 2ea8 b53d
000000c0: 0191 b53e 5de5 e23d cefc 94be 8f9b 9fbe
000000d0: c6fa dfbe 4f52 1cbe 3b13 1fbe 76a7 fb3d
000000e0: 8310 7abe fe01 83bb 39c7 8ebc 4c2c 833e
000000f0: 78d8 da3e 3fc0 1c3f d040 293f 3953 c03e
00000100: 93c5 73be ad90 0dbe c3c5 17be 5f00 87bc
00000110: 5b08 a8be 1ccc c03e 15d2 e23e ce7b 903d
00000120: 4705 783e 0494 0dbd 8c40 57bf 89e8 8fbe
00000130: 7735 44bf 4f34 433f 0667 eabd 5fb1 59be
00000140: 529e 093d 605e b03e 72e4 da3e 824c 11bf
00000150: ccff c73e 2e7a 06bd 8644 3b3e e092 073e
00000160: d1eb 9abd 6c0a c1be 0aa7 813e 4346 c23c
00000170: 859c fe3d 7f39 cb3d 9955 a2be c539 703d
00000180: 349e 65bc 04e5 2fbe 57ab 13bc 5c57 ec3e
00000190: 1bcd ccbd 78a7 27be 3195 383f fb74 033d
000001a0: c9ee 4dbd bb1e 4fbe 4feb 52bd cc3e 943d
000001b0: ae30 59be 628e c2bd 79f2 05bf 4a43 babd
000001c0: 578b 8e3e 2a3b 4c3f 023d 34be bcb8 a5bf
000001d0: 7efe 403e d824 fabd b70a 4f3f ce6f adbe
000001e0: 84c4 d33e 2f7a a8bd 3411 ff3d cf30 92be
000001f0: f8f7 363c f3b7 013d 3a25 0f3f 5b6f 8fbe
00000200: 4601 10be 7ab3 8dbe 97fc 53bf 42b4 95be
00000210: bfd1 e93b 61d3 6dbd 753c bc3d 59ef fdbe
00000220: de65 a03d 76e2 a0bf 55be 16bd 9639 a4be
00000230: eacf 703e 2f75 39bf d155 473f 5726 8a3d
00000240: 0988 a03e 233b 503e eabb 79be 41ce d1be
00000250: ad5f 543f 8e1f 223f 2f8c 12bf 45b3 f63e
00000260: 5a7a 00bf eb26 733e 28f0 1c3e 6ca5 b63e
00000270: 2802 06be ade8 cf3d fa1d 9fbe 35ff c33d
00000280: a5b7 abbf e970 df3c bd6d f3bd 994d 5abf
00000290: 1d09 153f efea d6bc 1353 4c3f 0af5 59bf
000002a0: e03f 18bf 8c22 e43d 587f c33e a131 efbe
000002b0: aaf1 a23e 637f 20be f5a0 323e 61ff c73e
000002c0: 87f0 8cbe 1e45 4b3e 950b c83e a4e9 993c
000002d0: ec03 0ebf d39e 0abf b7a6 46bf 8447 643e
000002e0: dd93 9fbd 1678 803e 5bdf a0bd 0b42 90be
000002f0: 025b 2abf c92d 2f3f 3c2d 87be 62f1 373f
00000300: 876f 243f ff7a 57be e98f 283e 4ae7 b73e
00000310: baa8 9abd 22ab 583e 485e 46be 79e3 17bf
00000320: b647 d53d b729 753d b587 213d ec02 63be
00000330: 24cf c03d 5a2d 493e 0d06 eebd cb5c 303f
00000340: 1eb7 593f e89f d7bd b15c adbd 2888 89bd
00000350: a8fe 6bbe fc74 8b3e 8676 55bf 77cd e3bc
00000360: 653f 163e e8ca 1cbd 8653 06be dafe 8dbe
00000370: d3d1 473e 947e f63e 007a 103e 8a77 4bbf
00000380: 1b59 49bf a0a9 9cbf 12e0 f8be 4cd5 6d3d
00000390: 954e af3e 6c4e 19bf 83f1 013f bfa4 863e
000003a0: 72be 9cbe bfc9 b4bd 8098 a83e b605 31be
000003b0: 69b5 103f 3756 ccbe 562b 813e 42d8 05be
000003c0: d0b1 083f d25c 913c cebe 55bf 5dcf 82be
000003d0: 974f 7d3e 582f 41bf 2807 eebe ba98 6abf
000003e0: 183b 0a3e 4338 23bd 144a 79bd a111 ddbe
000003f0: dbc8 babe 4688 fb3e 1ca4 a4be b855 223e

dense_3.bias f4 [64]
-0.5005772 -0.12328074 -0.49605936 -0.10482479 0.03795177 -0.3631348 -0.18596926 -0.5650562
-0.6433872 0.04823761 0.13948198 0.34250626 -0.104341045 -0.3072753 -0.4362531 -0.64707565
-0.3531492 0.3013403 -0.6046206 -0.038294613 -0.04948663 -0.070063815 0.22758257 -0.5022444
-0.3590827 -0.45815766 -0.31202653 0.19100079 -0.14554766 0.5199243 0.5856826 0.02592108
-0.8538381 -0.35506138 -0.5558385 -0.24396345 -0.36745083 -0.9317432 0.16469198 -0.15286827
0.24842824 -0.3084789 0.080339946 0.46491742 0.04256434 -0.19649681 -1.1392723 0.23048173
0.2456626 -0.18168695 -0.72145426 -0.33419073 -0.03903099 -0.2713608 -0.006824138 0.2013363
0.5530355 -0.26453373 -0.0357778 -0.4029365 0.49345404 0.4837841 -0.34078404 -0.023399435
00000000: d425 00bf 9d7a fcbd 7efb fdbe 61ae d6bd
00000010: 5173 1b3d ceec b9be ba6e 3ebe 86a7 10bf
00000020: 06b5 24bf cd94 453d 5dd4 0e3e fb5c af3e
00000030: c2b0 d5bd 3053 9dbe 915c dfbe c0a6 25bf
00000040: f9cf b4be 4749 9a3e 6ac8 1abf d0da 1cbd
00000050: 7eb2 4abd 9e7d 8fbd 680b 693e 1793 00bf
00000060: b0d9 b7be a493 eabe f1c1 9fbe b695 433e
00000070: 720a 15be c219 053f 4bef 153f 7258 d43c
00000080: 2295 5abf 9bca b5be 6f4b 0ebf 8ed1 79be
00000090: 8422 bcbe b986 6ebf 04a5 283e 8089 1cbe
000000a0: f963 7e3e f2f0 9dbe 4589 a43d a809 ee3e
000000b0: f257 2e3d 7636 49be add3 91bf 6703 6c3e
000000c0: fa8e 7b3e 250c 3abe 3ab1 38bf 0c1b abbe
000000d0: f6de 1fbd ceef 8abe 059d dfbb 1a2b 4e3e
000000e0: bc93 0d3f f770 87be be8b 12bd b14d cebe
000000f0: 02a6 fc3e 8db2 f73e 3f7b aebe 2cb0 bfbc

dense_4.weight f4 [4, 64]
-0.07286833 0.22520621 1.2834393 -0.49657732 -0.8353785 0.22687653 -0.16063932 0.0196188
-0.14305809 0.3436284 -0.490523 -0.11885963 0.17375521 0.61790967 0.4926911 -0.31734425
-0.2056557 0.8269025 0.3330174 -0.21528752 0.18424596 -0.17326684 -0.07836924 -0.051553775
0.089593016 -0.055959117 0.23534493 0.697876 -0.5292664 -0.08159143 -0.35507312 -0.328343
-0.785499 0.06973156 0.46831337 -0.0726177 0.065183215 0.43326283 -0.17090741 0.060624827
0.96170634 -0.19602965 0.0832314 -0.33796683 0.23181343 -0.42481673 -0.08203201 0.06052903
-0.36090046 -0.07707112 -0.15455198 -0.26175445 0.40198472 -1.0135784 -0.014777755 0.38779932
-0.83101475 0.72764176 -0.08900756 -1.0408577 0.7572951 -0.20133992 0.7480353 0.71742666
1.0886178 0.1346449 -0.22478858 0.586333 -0.42685553 -0.31124175 -0.7161541 -0.57272595
-0.06422077 0.07591752 1.2423646 0.016798107 0.76749396 0.026528971 -0.041715365 -0.2852272
-0.32908872 -0.53370684 0.06097445 -1.2379402 0.024367884 -0.88180643 0.35945663 -0.39361084
1.1071535 -0.21722896 -1.0031352 0.62223494 0.29415637 0.23105176 -0.67084116 -0.7154646
-0.18133117 -0.5461257 -0.18346979 0.06510211 0.2744301 0.47153595 -0.23467802 0.55960596
0.42210016 0.029379496 0.009182102 -0.6593552 -0.42004418 -0.44749638 -0.3427835 0.5849634
0.45974 -1.0339389 0.72311944 0.66960144 -0.6575747 0.0919526 1.3300688 -0.9634533
0.52220994 -0.23791029 0.6421144 0.29058382 0.015706923 0.5054221 0.76057994 0.118479826
-0.1401878 -0.10172073 0.3568911 0.0026118665 0.11949488 0.0019717505 -0.07765723 0.5835867
-0.065022975 0.03554801 0.03813855 0.080890015 -0.025791712 -0.16581881 0.030041596 -0.13918817
-0.21885592 -0.45757222 0.64046466 -0.12678437 -0.03335697 -0.051544532 -0.08539472 0.16477756
0.45029032 -0.087402366 -0.2330916 -0.0143919755 0.030177286 0.11545727 0.06325941 -0.15171362
-0.07839715 0.0685714 0.63171995 0.08693211 -0.2671065 0.77129173 -0.07916287 -0.07048415
-0.18853268 0.0038222237 0.10741487 0.13523999 -0.18963459 -0.3408034 -0.08962839 -0.09288358
0.022735663 0.004888496 0.11860075 -0.034362674 0.004273347 0.038036454 -0.13449478 0.027931465
0.040695705 -0.18241018 0.5849877 -0.09167451 -0.07632753 -0.011980039 0.09902811 0.03176852
-0.03369456 0.10745871 -0.08987473 -0.073653944 0.08941909 -0.5806345 -0.05583062 0.87506706
0.03182944 -0.035622846 -0.033057928 -0.0687712 -0.013642904 0.054139663 -0.19152178 -0.045863643
-0.47643802 0.034755655 0.54921126 -0.024624709 -0.2293812 0.12121832 0.424898 0.0126139745
0.29865903 -0.0036850888 -0.028133878 -0.11486999 -0.0007781608 -0.3064866 0.016361658 -0.010118097
-0.23220316 0.28777453 -0.2656143 -0.36637464 -0.06663963 1.1477864 0.20697205 -0.011847226
-0.0094314655 0.3774473 0.07181755 0.12936813 -0.08841116 -0.08839904 -0.91559297 -0.017350495
-0.16460559 0.27594173 -0.29985824 0.039377604 -0.053674463 -0.0055185016 -0.07618789 0.027696313
-0.034653205 0.011104806 0.3950243 0.020769447 -0.0055707656 -0.10857724 -0.0318381 -0.02431806
00000000: fe3b 95bd 759c 663e bd47 a43f 623f febe
00000010: 5edb 55bf 5252 683e a27e 24be 9bb7 a03c
00000020: d27d 12be 10f0 af3e d525 fbbe ad6c f3bd
00000030: e3ec 313e 542f 1e3f 0242 fc3e f27a a2be
00000040: 6897 52be e2af 533f 4281 aa3e 5574 5cbe
00000050: f9aa 3c3e dd6c 31be 0d80 a0bd 0d2a 53bd
00000060: 8b7c b73d 6335 65bd 43fe 703e 00a8 323f
00000070: 017e 07bf 6819 a7bd 25cc b5be 931c a8be
00000080: 7616 49bf 6ccf 8e3d c5c6 ef3e 97b8 94bd
00000090: c77e 853d a0d4 dd3e 5a02 2fbe bd51 783d
000000a0: 6332 763f ffbb 48be 3975 aa3d fd09 adbe
000000b0: 8060 6d3e 9481 d9be 6600 a8bd 4aed 773d
000000c0: f2c7 b8be 77d7 9dbd e042 1ebe ae04 86be
000000d0: f1d0 cd3e f0bc 81bf 661e 72bc a28d c63e
000000e0: 62bd 54bf bb46 3a3f 9849 b6bd d33a 85bf
000000f0: 17de 413f 0d2c 4ebe 3e7f 3f3f 46a9 373f
00000100: d457 8b3f 5ae0 093e fa2e 66be eb19 163f
00000110: cf8c dabe 145b 9fbe e055 37bf 2b9e 12bf
00000120: 2e86 83bd a57a 9b3d ce05 9f3f 2f9c 893c
00000130: 7c7a 443f 4953 d93c bbdd 2abd 4d09 92be
00000140: 517e a8be 03a1 08bf 58c0 793d d374 9ebf
00000150: 289f c73c 11be 61bf b30a b83e 5c87 c9be
00000160: 35b7 8d3f 4571 5ebe bc66 80bf ca4a 1f3f
00000170: aa9b 963e d598 6c3e 3fbc 2bbf b028 37bf
00000180: e1ae 39be e5ce 0bbf 81df 3bbe 4154 853d
00000190: 1a82 8c3e 296d f13e 6f4f 70be 5642 0f3f
000001a0: 831d d83e 45ad f03c 8770 163c 81cb 28bf
000001b0: 0810 d7be 3f1e e5be 5281 afbe 29c0 153f
000001c0: 0b63 eb3e 1c58 84bf 5b1e 393f 006b 2b3f
000001d0: d156 28bf a551 bc3d b23f aa3f e0a4 76bf
000001e0: 8daf 053f c19e 73be 9c61 243f 67c7 943e
000001f0: ceab 803c 5863 013f 5eb5 423f 8da5 f23d
00000200: 648d 0fbe f552 d0bd 6eba b63e d92b 2b3b
00000210: bbb9 f43d 7c38 013b c10a 9fbd f065 153f
00000220: c42a 85bd ca9a 113d 2b37 1c3d aaa9 a53d
00000230: 2449 d3bc 68cc 29be cb19 f63c 5887 0ebe
00000240: c41b 60be e846 eabe 7ef5 233f c3d3 01be
00000250: 51a1 08bd 5c20 53bd 6de3 aebd 73bb 283e
00000260: 748c e63e 0300 b3bd 90af 6ebe 52cc 6bbc
00000270: 5b36 f73c dc74 ec3d 268e 813d d15a 1bbe
00000280: af8e a0bd 2a6f 8c3d 66b8 213f 7609 b23d
00000290: 2fc2 88be 6073 453f 2520 a2bd fe59 90bd
000002a0: b60e 41be 467e 7a3b 54fc db3d 5a7c 0a3e
000002b0: 922f 42be c97d aebe 178f b7bd bf39 bebd
000002c0: 2440 ba3c ad2f a03b f3e4 f23d e0bf 0cbd
000002d0: 6f07 8c3b 1dcc 1b3d 00b9 09be 87d0 e43c
000002e0: 8ab0 263d bcc9 3abe c1c1 153f d8bf bbbd
000002f0: 9c51 9cbd ed47 44bc 40cf ca3d b51f 023d
00000300: 4f03 0abd 5013 dc3d 3e10 b8bd e1d7 96bd
00000310: 5b21 b73d 76a4 14bf a6ae 64bd 6504 603f
00000320: 965f 023d 43e9 11bd c067 07bd ead7 8cbd
00000330: 7d86 5fbc 8dc1 5d3d 491e 44be 84db 3bbd
00000340: afef f3be f25b 0e3d 1c99 0c3f c2b9 c9bc
00000350: e8e2 6abe 5041 f83d 3b8c d93e d8aa 4e3c
00000360: d6e9 983e 8881 71bb 0579 e6bc f540 ebbd
00000370: 7dfd 4bba d0eb 9cbe e208 863c 60c6 25bc
00000380: aac6 6dbe 2f57 933e 99fe 87be 7595 bbbe
00000390: 5c7a 88bd aaea 923f 7bf0 533e de1a 42bc
000003a0: 6f86 1abc c640 c13e 1415 933d 1479 043e
000003b0: e910 b5bd 8e0a b5bd 4d64 6abf a022 8ebc
000003c0: 5e8e 28be 3c48 8d3e 0587 99be 694a 213d
000003d0: c1d9 5bbd 8cd4 b4bb 6508 9cbd 61e3 e23c
000003e0: 85f0 0dbd eff0 353c a040 ca3e b024 aa3c
000003f0: f88a b6bb be5d debd ab68 02bd ab36 c7bc

dense_4.bias f4 [4]
-0.20893146 -0.25359738 0.24293737 -0.51366353
00000000: 21f2 55be 84d7 81be 93c4 783e 747f 03bf
