critic_model.pt (torch_old, 27672 bytes, 5 tensors)

dense_1.weight f4 [64, 37]
00000000: 71d2 323c fb26 c53e 846f c6bd 8a53 f3be
00000010: 6bc2 273f f681 033f 6860 8e3e c9ed 51bd
00000020: 72ac 9d3c 0572 4e3c 46db 113d 5fab a93e
00000030: 34d7 433d 6fb9 b8bd 3ace f5bd b315 223e
00000040: f713 0d3e 4b4a a7bc 495a 093e 894b 83bd
00000050: bdc9 213c 2bdd f43d b86d a83d 8c88 e1bd
00000060: 02d8 dc3d ea72 f2bd 31cf ba3d 0e92 563f
00000070: d3c4 78bd d879 2abd d401 87bf 2973 113e
00000080: 6e9b 583f a616 f73c 3817 33be 922a 65bd
00000090: a7be e63d af79 06bf 56e8 5ebe 98b3 663e
000000a0: 9a73 853d 5195 18be 7999 1d3f 9195 fdbd
000000b0: ea04 69bd 8d1e 49be 350c 8dbd 9170 bf3b
000000c0: 5275 903c dc28 01bd 1e8f 293f 58dd 6b3e
000000d0: dde7 c2be cbcb f3be 29e8 20be 24bb 9ebd
000000e0: c754 93bc 7210 823c 7ecd 66bd 5ab6 dc3b
000000f0: a439 593d e439 b0b8 aa95 69bd cdba c6be
00000100: 8921 013f b2aa 6e3e 60af cd3b 4a8e c0be
00000110: c2df d03d 81d6 8d3d c24d 333d b73f 523b
00000120: 3210 a6bd a467 f4bd 7dff 983d 61ef e73e
00000130: 667a 62be e514 7e3e b40d 863e ba67 2cbe
00000140: 7ad2 e9be fea8 ed3d e1cc 8ebd 43c8 253d
00000150: e225 1abd 992c 263e 10f9 0b3e 15fe 51be
00000160: 043d c4be 5030 9ebb 416b 933f abe1 543e
00000170: ea3f 13be aa26 8e3e 29df 743d 79a1 cbbd
00000180: 3a7c 57bd 5cfb 1abd f710 b9bd 58c9 8abc
00000190: 79ad 8b3e 484f 5b3f 255a 2fbd a47a 29bd
000001a0: 9a0a 67bf 80a7 41bb a633 3e3e d97f 2f3d
000001b0: b337 483d 42e5 b03b 9905 913d e411 b1be
000001c0: 138e d63e b942 26be 6be7 2cbe 71d4 aebe
000001d0: 25db d0be d590 bcbe 864a 963b 0ba0 543d
000001e0: fa7f fbbb a1f4 97bd 137b 883d 9cbe 6cbc
000001f0: 80b9 f53e df23 4dbe f6d5 15bd 2f9b 583d
00000200: 0224 3a3e 80e3 dcbd 1004 833d c2dd 7ebd
00000210: 6c91 383e fae9 a53d 32d7 993e 9c82 27bd
00000220: e96e 24bd 4b20 4abe 9e08 d23e 2c36 343e
00000230: b776 1f3e 7c8b 8bbe 1fd4 1f3e 43b6 33bf
00000240: d715 983c be3a 533d 1328 ee3b 1312 b2bc
00000250: 30ec be3e 6939 863e e2f3 3b3c c0b7 933d
00000260: 9a9d d13e e702 473e 4676 823d cc43 69bd
00000270: 8679 3b3d 5c18 b2bd 1551 5e3d bc7f e43c
00000280: 21bd 19bd 2376 f3be a5df 3ebd 21b2 f33c
00000290: e4a4 b8bd 265d 9b3d c380 c7bd a2d6 073d
000002a0: d731 093c bbb1 94bc 7223 eabc cf5d eabd
000002b0: 1378 69bc 8a97 59bc f51d 5e3e 25c7 163f
000002c0: 824e ddbd e24c 96bd 59fc b4be d709 08be
000002d0: ddc0 ecbf d88c 563c 068c fd3a 303e 64bd
000002e0: 1180 923d 2a6e d0bb ccda a53e 5ac4 4a3e
000002f0: d4ba a0bd bd28 7ebe da07 c23e 139f 573e
00000300: 2662 3a3c 042f 92be 37f6 523d 41ac 4d3d
00000310: bad8 a03d a7e6 903d ead6 9ebd 252d cc3a
00000320: 7e01 32be ed12 3abe 4396 963e 9eeb cebe
00000330: 3e36 c93d 9795 b13e 50d4 b43d 3e10 9f3d
00000340: bf64 2dbe 3c53 54be 33f4 c2bc 83e2 1abe
00000350: 6913 6a3f 9b24 db3d 0068 97ba bb6c 5fbf
00000360: 13ae 03be f2b5 933f f36e ddbc d889 63bd
00000370: f4ac 043e a63b 543e 7745 99bd a239 263d
00000380: e5f3 0ebf 0c65 1b3e d742 bbbe 4d50 f6be
00000390: 9ded c83d 7665 413d d77c 9a3d e5dc 8a3d
000003a0: 18ca c7bc fee3 2c3d 52f2 823c 2060 c73d
000003b0: 729f 2f3d 3f11 213f 0c63 553e 05d5 f33c
000003c0: db87 ebbd ba54 a1bd d4c5 20bc 8208 50bb
000003d0: a19e 3cbc 497c 03bb e703 3abc 00a8 143e
000003e0: 6e29 19be 0a92 7b3e 67ad a7be 9000 b23c
000003f0: 9afe 0cbe 74d7 44bd d1f7 1abd 242b 71bd
0.010914431 0.38506302 -0.09689239 -0.47524673 0.65531033 0.5137018 0.27807927 -0.05125216
0.019247267 0.012600427 0.035609506 0.33138558 0.047812656 -0.09019744 -0.12002225 0.1582859
0.13777147 -0.020421168 0.13413347 -0.064108916 0.009874758 0.11956247 0.08224052 -0.110123724
0.10783388 -0.11838324 0.0912155 0.8381661 -0.06073458 -0.041620106 -1.0547433 0.14204086
0.84612167 0.030162167 -0.17489326 -0.0559488 0.11266833 -0.52529424 -0.21768317 0.22529447
0.0651619 -0.1490071 0.61562306 -0.12382043 -0.056889452 -0.1964056 -0.06887094 0.0058422764
0.017634068 -0.031533107 0.66234004 0.23033655 -0.38067523 -0.4761642 -0.15713562 -0.07750538
-0.01798476 0.015876982 -0.056348316 0.006735605 0.053033486 -8.403117e-05 -0.057027496 -0.38814393
0.50441796 0.23307303 0.00627701 -0.37608558 0.101989284 0.06925679 0.043775328 0.0032081434
-0.08108558 -0.119338304 0.074706055 0.4529982 -0.22117004 0.24812658 0.2618233 -0.16836444
-0.45668393 0.11604498 -0.06972671 0.040474188 -0.037633784 0.1622795 0.13669229 -0.20507081
-0.383278 -0.0048275366 1.1517106 0.2078921 -0.1437985 0.27763873 0.059783135 -0.09942908
-0.052608706 -0.03783737 -0.09036439 -0.016941711 0.27280787 0.8566785 -0.042810578 -0.041376725
-0.9025055 -0.00295493 0.1857439 0.042846534 0.048881244 0.0053984234 0.07081146 -0.34583962
0.4190527 -0.1623639 -0.16885154 -0.34146455 -0.40792194 -0.36829248 0.0045865206 0.05191044
-0.007675168 -0.07419706 0.066640995 -0.014449742 0.47993088 -0.20033215 -0.036581002 0.05288237
0.18177798 -0.1078558 0.06397259 -0.062223203 0.18024224 0.08101268 0.30046993 -0.040896043
-0.040144835 -0.19738881 0.410222 0.1759879 0.1557263 -0.27254856 0.15608262 -0.70199984
0.018565102 0.051569693 0.007267961 -0.021737134 0.37289572 0.26215675 0.01147172 0.07212782
0.40940553 0.19434701 0.06370215 -0.05694942 0.04577019 -0.086960524 0.054276545 0.02789294
-0.037533883 -0.4755107 -0.046600003 0.029748024 -0.090158254 0.07586126 -0.09741356 0.033163674
0.008373699 -0.018151155 -0.028581355 -0.11443674 -0.014249819 -0.013280759 0.21691115 0.5889762
-0.1080599 -0.07338883 -0.35348776 -0.13285004 -1.8496357 0.013095103 0.0019344098 -0.05572337
0.07153333 -0.006360789 0.3239349 0.19801465 -0.07848135 -0.24820228 0.37896615 0.21056776
0.0113759395 -0.28551495 0.05150434 0.050213102 0.07853837 0.070752434 -0.07755835 0.0015577419
-0.17383382 -0.18171282 0.29411516 -0.40414137 0.09824799 0.3468444 0.08829558 0.0776677
-0.16932963 -0.20734876 -0.023798084 -0.1512547 0.9143587 0.10700341 -0.001155138 -0.87275285
-0.12859373 1.15399 -0.027030444 -0.05555138 0.12956601 0.20725879 -0.074839525 0.040582307
-0.55840904 0.15175265 -0.36574432 -0.4810814 0.09810946 0.0472159 0.075433426 0.067804135
-0.024388358 0.042209618 0.015984688 0.09735131 0.04287667 0.6291694 0.20838565 0.029764662
-0.11500522 -0.078774884 -0.009812791 -0.0031743352 -0.011512429 -0.0020063093 -0.011353469 0.14517212
-0.1495721 0.24567428 -0.32749483 0.021728784 -0.13768998 -0.048057035 -0.037833992 -0.058879033

dense_1.bias f4 [64]
00000000: 9c6f 58bf eed0 ddbe 78d5 62bf 0c43 e7be
00000010: 99fe aabe 830a 6ebf 7701 b1be c628 de3e
00000020: 5fad 303f cc2b b6be 6924 eebe cb45 64bf
00000030: 0fba d63d be16 49bf a71c 55bf 3d42 70bf
00000040: 8499 72bf e6ba 79bf ba6e 0fbf 0da7 a1bf
00000050: 3f2e dfbe a432 48bf 4298 aabe 53d7 83bf
00000060: 9b9a 9ebf 3887 0cbf 7f73 64bf 63d1 8ebf
00000070: 32f2 1abf 6681 77be 05b5 3fbf 48e4 94bf
00000080: 14f3 7b3e c30b 5dbf 68ee 98bf 1336 57bf
00000090: 6250 5bbf fc7e 21bf 29c8 26bf 81aa ddbe
000000a0: 63e6 46bf f61a c4be a499 90bf a2e1 01bf
000000b0: 921d a6be d9ba 55bf 9852 1fbf 15a9 63bf
000000c0: cae0 2dbe f9cc 80bf 8aa0 87bf 1889 a7be
000000d0: fc18 11bf 5421 423e 5983 e6be 6756 86bf
000000e0: 310f c8be 358e 94bf d9fb 55bf 7cd0 61bf
000000f0: aedc a83c a898 81bf 1acd 66bf 3d2f 46bf
-0.845453 -0.43323463 -0.8860698 -0.4516834 -0.33397368 -0.9298479 -0.3457143 0.43390483
0.69014543 -0.3558029 -0.46512154 -0.89168996 0.104847066 -0.78550327 -0.83246845 -0.9385107
-0.94765496 -0.9755081 -0.5602833 -1.2629105 -0.4358997 -0.7820227 -0.33319288 -1.0300087
-1.2390932 -0.5489383 -0.89238733 -1.115765 -0.6052581 -0.24170455 -0.7488559 -1.1632166
0.24604446 -0.8634607 -1.1947756 -0.84066886 -0.8566953 -0.6308439 -0.6514917 -0.43294147
-0.7769529 -0.3830182 -1.1296887 -0.50734913 -0.32444435 -0.8348823 -0.62235403 -0.88929874
-0.16980281 -1.0062553 -1.0595868 -0.32721782 -0.5667875 0.18958026 -0.45022085 -1.0495118
-0.3907409 -1.1605898 -0.83587414 -0.88208747 0.02061304 -1.0124712 -0.9015671 -0.7741583

dense_2.weight f4 [64, 64]
00000000: 8315 ffbe a5b0 873e 35c3 fa3d 28d5 d1be
00000010: 2ea1 a7bd 76d6 a5be bd74 61bd 3011 a7be
00000020: 2b7e 30be f43f 6cbe 9e94 0bbe b899 f5be
00000030: 1f84 07bf dfe4 82be c5a4 b5be 3f98 3e3e
00000040: 8029 cc3c 4974 2dbf c66b 7abe d2b6 a5bd
00000050: 26d4 e7be ba1d edbd 7302 4bbe bfee 203a
00000060: df40 c43e 7a2a 08be c2f7 e6bd 9d10 993e
00000070: 89d8 0e3e d0d7 0fbe 7d80 a1be 0abb eabe
00000080: bc10 f4be 5cff b73d 2dd5 24bd f22e c9be
00000090: 2cae 4dbf d806 223c 9bd2 a7be c673 48be
000000a0: 2013 dfbe 65e2 933e 6659 e3be 6dc6 a7be
000000b0: 0f46 d5be f0dd ce3e c897 89bb c6f0 c9bd
000000c0: 15b9 aebe e808 2abe 6379 aebd fa4e 1b3d
000000d0: f960 4abd 17c5 3f3e 96c4 c8bd 6f02 01bc
000000e0: 14e5 cfbd 8601 f7bd 99f0 b7be 188b fabb
000000f0: d86b c6be a86f 02be d2c8 9e3d 1ab0 37be
00000100: fbfd 6c3e d1b8 4a3e f1ab 693e 746c 00bc
00000110: 0870 7d3c 3350 d03e d262 53be c9f1 8f3d
00000120: 9f67 5fbe cd5c 15bf 7135 49be d94f 963d
00000130: f1d5 82bd 924b e2bd 42a9 d13d fa6c 91be
00000140: 4fd6 113e 2aa1 40be e430 adbe b378 ed3d
00000150: 15bb ec3e 4858 d03e 297e 9a3e ec0b 17bd
00000160: ad18 4ebe fce5 debc d058 d8bd 2c6b c23e
00000170: 18e3 31be f35d 1bbd 6be2 e8bc 1b49 7abe
00000180: e13d e3bd dad2 07be fce2 1ebd b855 25be
00000190: 7d2d 413e f618 1f3e 24ee 4fbe f07b 933d
000001a0: 5f63 83be 6c6c 053d d685 683d 78f3 1f3e
000001b0: 0369 973e 0983 1fbe e640 92be f145 053d
000001c0: a47e a83e 5d6a e0bd 291f 1d3e 950e 37bf
000001d0: 29ea e63d 1039 50be ab0b 1dbf 4b71 47bc
000001e0: 50d3 313e 2ad3 ee3d 02f1 05be 97fc 623d
000001f0: 027f 07bc 2586 9fbe 1dcd 0d3f 4a72 463e
00000200: 25d4 af3d 7f4d 8abd 16f4 a33e ad89 bfbd
00000210: 8961 e63d 4f7f 6c3c f329 8abe b00c 0ebf
00000220: 97e7 14be 0b32 a2be ef31 ff3d 656f 82be
00000230: 0891 8fbf 0d88 dbbe 6716 343e 9f9e 693e
00000240: df81 70be 4e57 2d3e 7d6a bfbe f146 353d
00000250: 578b e4bd cc5f 953e 21fd c4be a740 1a3e
00000260: 3c9f 473e 4f61 65bd 0c67 293e 623c 2a3e
00000270: c90a 68bc 2714 563e 59f1 e2bd e421 113f
00000280: 05ac f5bd 39bf 4dbe 1389 39bd 9359 0ebf
00000290: 16b9 173f 226e abbd 7881 0fbf d4fe 6e3d
000002a0: e9cc 30bd 270d a23d b859 5bbe 5a9e 24bf
000002b0: 13a9 8fbf de07 b5be b1ea 66be e6c8 91bd
000002c0: 4e1d bebd a0c7 7f3c a41d 273d 91be a43d
000002d0: 8009 ffbc d780 dc3d 5fca 2fbf 5ef0 fabe
000002e0: 1d30 68bd 8dd0 39be af16 38be 9e72 31bf
000002f0: 85bc 1dbe d415 ebbd 5fa7 e13d 64d2 433e
00000300: 81e5 c4bd 1000 57be febc 3abc 7264 593d
00000310: f80e 80bd 03a7 333e a318 44be b5ed 91be
00000320: 05c1 a8be f56b 31be b5db 8e3d c7e1 15bd
00000330: 1eec 8cbe 0e85 5d3d 806b 533e ec25 88bd
00000340: 42b8 53bd 0fbb 62bd 1ed2 2ebe 605e e3bc
00000350: 691b 2e3e ba78 9f3d a8ef 61bd a292 f73d
00000360: 431d e4be e3f6 33be aea6 32be 883e acbe
00000370: 1764 3c3e ddd5 793d eff2 2b3a 7281 bebe
00000380: 45d1 9f3d 4302 193e 5444 81bc e0f4 96bd
00000390: f546 dabd f86d e8be bcb6 bcbd 21c6 48be
000003a0: 839e 3fbe d414 91be 1284 a03c c489 35be
000003b0: 30e0 11be abd8 02be 1cb5 a9be 9cf9 97bd
000003c0: 7b46 a8bd 91b4 52be d927 b3be 59ad 913d
000003d0: 74f6 17be a5bc 243e 406b 753c 6433 a3bc
000003e0: fede febd 6f0e 48be 9b46 69bd 161b 953d
000003f0: ea51 b2be 5305 9cbd ef56 e4bd a27f e9be
-0.498211 0.26501957 0.12244264 -0.40982938 -0.081850395 -0.32390183 -0.05504297 -0.326303
-0.1723563 -0.23071271 -0.13630912 -0.4796884 -0.52935976 -0.2556524 -0.35477272 0.18612765
0.024922132 -0.6775556 -0.24455175 -0.08091511 -0.45279044 -0.115779355 -0.19825153 0.00061390916
0.38330743 -0.13297454 -0.11277725 0.29895487 0.13949789 -0.1404717 -0.3154334 -0.45845824
-0.47669017 0.08984253 -0.040242363 -0.3929363 -0.8034389 0.009889327 -0.32777867 -0.19575414
-0.4356928 0.28883663 -0.44404143 -0.32768574 -0.41655013 0.404037 -0.004199002 -0.09860377
-0.3412558 -0.1660496 -0.085192464 0.037917115 -0.049408887 0.18727528 -0.09803121 -0.007874115
-0.10151115 -0.120608374 -0.3592575 -0.007645976 -0.38754153 -0.12737906 0.07753147 -0.17938271
0.23143761 0.19797064 0.22819497 -0.007838357 0.015468605 0.40686187 -0.20643166 0.07028539
-0.21816872 -0.5834473 -0.19649293 0.073394485 -0.06388462 -0.1104957 0.102373615 -0.28403455
0.14241908 -0.18811479 -0.33826363 0.11595287 0.46236482 0.40692353 0.30174378 -0.036876604
-0.201266 -0.027209274 -0.10563815 0.3797239 -0.17371786 -0.037931394 -0.028428277 -0.2444195
-0.11095787 -0.13264027 -0.038790688 -0.1614598 0.18865009 0.15536866 -0.20305687 0.072013736
-0.25661752 0.032574102 0.05676826 0.1562022 0.29572305 -0.1557733 -0.2856514 0.032537404
0.3290912 -0.10957787 0.15343918 -0.71506625 0.11275131 -0.20334268 -0.6134593 -0.012173007
0.17365766 0.1166137 -0.13080218 0.05541667 -0.008270027 -0.31157032 0.55391103 0.19379535
0.08585385 -0.067530625 0.3202216 -0.093524314 0.11249072 0.01443465 -0.2698513 -0.5548811
-0.1454147 -0.31678805 0.12460696 -0.25475612 -1.1216135 -0.42877236 0.17586671 0.22814415
-0.23487042 0.16927835 -0.37385932 0.044257108 -0.111593895 0.2917465 -0.38474372 0.15063725
0.19494337 -0.056001004 0.16543216 0.16624597 -0.014162728 0.20906125 -0.1108119 0.5669234
-0.11995701 -0.20092477 -0.04529674 -0.5560543 0.59266794 -0.083706155 -0.5605693 0.05834849
-0.043164168 0.07912665 -0.21420944 -0.64304125 -1.1223472 -0.35357565 -0.22550465 -0.071183965
-0.09282933 0.015611559 0.040799752 0.0804416 -0.03113246 0.10766762 -0.6866817 -0.4901151
-0.05668651 -0.18145962 -0.17977403 -0.69315517 -0.15403946 -0.11478773 0.11018252 0.19123226
-0.09614087 -0.20996118 -0.011397598 0.053074308 -0.06252855 0.17544179 -0.19150023 -0.2850167
-0.32959762 -0.17326339 0.069754995 -0.03659227 -0.27523893 0.05408197 0.20646477 -0.06647858
-0.051689394 -0.055354174 -0.17072341 -0.027754962 0.17002644 0.07786699 -0.055160195 0.12088515
-0.44553575 -0.17574649 -0.17446396 -0.33641458 0.18397556 0.06099497 0.0006559332 -0.37208134
0.07803587 0.14942269 -0.015779652 -0.07370925 -0.10658065 -0.453964 -0.09214541 -0.1960683
-0.18712811 -0.28336203 0.019594226 -0.17728335 -0.14245677 -0.12777965 -0.33145988 -0.07420656
-0.08216568 -0.20576693 -0.3499134 0.071131416 -0.14840108 0.16087587 0.014979184 -0.019921966
-0.12444876 -0.19536756 -0.0569521 0.07280557 -0.3482812 -0.07618203 -0.11149394 -0.4560519

dense_2.bias f4 [64]
00000000: d3ad 2bbf d971 1d3f f52a 953e 1cd8 06be
00000010: a22c b53f 2523 1abe fcd6 3abe 2129 88be
00000020: b8c9 243f f245 7a3f 48d1 f0be 9af6 5b3f
00000030: 75ec c6be 4607 1fbf 307a 29bf e228 5fbf
00000040: 0297 41bd 2de6 5f3f 0ddf 12bf c5e6 593f
00000050: 9e84 1f3f 0e70 1c3f a7b9 4c3f dc46 19bf
00000060: 1d20 fcbe 164f ffbe f42d 62bf 43ca 78bf
00000070: e3c1 823f 53fe cabe f612 c2be bf40 933e
00000080: 5285 503f 2ad1 5b3b 5563 7c3f 87cd ecbe
00000090: 2d8f 3c3f 0a5f 7dbf 1ee7 773f c804 f43e
000000a0: d046 913e 01ca ae3f 3e9d ec3c 21d9 8a3f
000000b0: 14f0 913f 5650 33bf 4bb2 4b3f 6e17 30be
000000c0: 8e13 7dbe 0fe6 6c3e eab9 b5be faca 373f
000000d0: 29e2 863f 1b4e 21bf a9b2 a33f 7f24 15bf
000000e0: 6d7c 23bf 85f9 98bf fc7f 093d d57e bcbc
000000f0: b33d 54bf c9d6 8a3f da5a 873f 112b 333a
-0.6706211 0.6150184 0.29134336 -0.13168377 1.4154246 -0.15052469 -0.18246073 -0.2659388
0.643703 0.9776298 -0.4703467 0.8592316 -0.38852277 -0.62120473 -0.6620207 -0.8717176
-0.047263153 0.87460595 -0.573716 0.8511775 0.6231173 0.6110848 0.79970783 -0.5987375
-0.4924325 -0.49865025 -0.8835137 -0.97183627 1.021542 -0.3964716 -0.3790509 0.28760335
0.8145343 0.003354142 0.9858907 -0.46250555 0.7365597 -0.98973143 0.9683703 0.47659898
0.28374338 1.3655397 0.028883573 1.0847512 1.1401391 -0.7004446 0.7956893 -0.17196438
-0.24714491 0.23134635 -0.35493404 0.7179409 1.0537769 -0.63009804 1.2788898 -0.58258814
-0.63861734 -1.1951147 0.03356932 -0.023009697 -0.82906646 1.0846797 1.0574601 0.00068347255

dense_3.weight f4 [1, 64]
00000000: 1925 06be d750 1d3c f140 d1bd 3902 d3bd
00000010: b5cf 923e a84a b3bd c269 173d 2dc5 aabd
00000020: 6933 453d cdf5 bf3d 1708 f1bd d123 583d
00000030: aa61 e4bd a336 81bd 83d9 10be c78a d0bd
00000040: dbb7 38bc 9f0a 003e ca65 92bd 5050 863d
00000050: 7ce1 573d 223d 48be 5496 863d 3326 d5be
00000060: 140f e8bd 4345 9bbd b498 85bd 5737 0ebe
00000070: 5b5d fb3d cfe9 9d3b 7a4f 23be df5a b53d
00000080: 3215 e13d 93ae d03d a7d2 0d3e 10ef 87bd
00000090: 1c59 223e 1740 ffbd 2337 313d 68e5 d03d
000000a0: 2ebf 863d 8478 6e3e 78c8 9bbb 5b67 5e3e
000000b0: 9789 a73d de0b 00be 657c 383d 5265 8e3d
000000c0: 3f4b 87be 0b0b f2bd d3b6 83bd c4ed 4f3d
000000d0: 8e90 b93d 0f3b febb ad46 523e 93af ef3c
000000e0: 4951 713c fb9a 0ebe 4b12 2b3d 9792 293e
000000f0: c064 55bd 2dca ba3d 842b 123e 8786 413e
-0.13100089 0.009601793 -0.10217465 -0.10303158 0.28674093 -0.08754474 0.036966093 -0.083383895
0.04814473 0.09373055 -0.11769121 0.052768532 -0.111514404 -0.06309249 -0.14145474 -0.1018272
-0.011274303 0.12504052 -0.07148321 0.06558287 0.052705273 -0.1955457 0.065716416 -0.41630706
-0.11331001 -0.0758157 -0.065232664 -0.13888298 0.122736655 0.004819132 -0.15948287 0.08855223
0.10990371 0.101895474 0.13849889 -0.066373944 0.15854305 -0.12463396 0.043265473 0.10200006
0.065794334 0.2328816 -0.0047541223 0.21719114 0.0818054 -0.12504527 0.045040507 0.06952919
-0.26424596 -0.118185125 -0.06431355 0.05076386 0.09060775 -0.007758505 0.20534773 0.029258525
0.014728853 -0.13926308 0.041765492 0.16559826 -0.052098036 0.09120593 0.14274412 0.18898974
