critic_model.pt (torch_old, 27672 bytes, 5 tensors)

dense_1.weight f4 [64, 37]
000000 80 49 af 3e 21 39 91 3e 86 57 81 be 06 75 d7 be
       0.34235764 0.28363898 -0.25262088 -0.4208147
000010 6b fc 76 3f f0 23 26 3e f4 37 97 bb b9 8f c8 bd
       0.9647891 0.16224647 -0.0046148244 -0.09793038
000020 ad ad c7 be cc 7b 4b be 80 cd 46 bd 24 2a da 3d
       -0.38999692 -0.19871444 -0.048535824 0.10652569
000030 3b 4a cd bd be 82 bc bd 5a fd 24 3e db 89 7b 3d
       -0.10023924 -0.092046246 0.16112271 0.061410766
000040 1d b3 30 3e 4e 5a 8b 3d 56 fd 28 3e 06 b1 41 3e
       0.17255826 0.068043336 0.1650289 0.18915185
000050 b2 fa a9 bd a8 ca dc 3b b8 b7 e3 bc 4b 65 08 3d
       -0.082997695 0.0067380257 -0.027797565 0.033299726
000060 d5 84 f8 3d e9 c0 2c 3e 10 82 f3 3d f9 40 19 3f
       0.12134711 0.16870464 0.11890042 0.59864765
000070 c0 b8 ec bd d8 79 2a bd c5 b3 50 bf 29 73 11 3e
       -0.11558676 -0.041620106 -0.81524307 0.14204086
000080 d4 33 7d 3d 45 89 eb 3e 90 92 87 3e 9f 98 c8 3d
       0.061817005 0.46003166 0.26479006 0.09794735
000090 85 36 0a 3e 2f 01 fb bc 9a 88 07 3f 83 91 2b bd
       0.1349736 -0.030640213 0.5294281 -0.041886818
0000a0 f9 31 f8 be 23 2a 41 bd c3 d0 f8 be ae be 18 be
       -0.48475626 -0.047159325 -0.48596773 -0.14916489
0000b0 eb 27 25 bd 58 37 71 3d 18 76 ed 3d 09 b3 e3 bc
       -0.040321272 0.05889067 0.1159479 -0.027795332
0000c0 e2 27 45 3e 76 4b 24 be bf 99 85 3d 9d 2c d5 bd
       0.19253495 -0.16044411 0.06523465 -0.104089
0000d0 a3 4a 30 3e 69 54 bb be 30 a5 b9 3b 86 e4 c4 3d
       0.17215972 -0.36587837 0.005665444 0.096139
0000e0 96 23 7f 3e 1c 14 62 3d e1 85 04 be 5b 1f b5 3d
       0.24915919 0.05519496 -0.12941696 0.08843871
0000f0 b4 f1 a8 bc e0 29 20 be f8 86 c0 bc 99 0b 51 3d
       -0.020623066 -0.15640974 -0.023501858 0.05103645
000100 89 c5 80 3f 78 aa 9c bd 60 af cd 3b 95 b0 60 bf
       1.0060283 -0.07649702 0.00627701 -0.8776944
000110 c2 df d0 3d c1 a1 0e 3f f1 06 34 3d 97 e1 5f bd
       0.101989284 0.55715567 0.043951932 -0.0546585
000120 5b ab a2 3e 4d 1e e1 bd db 93 e1 3b 4d 09 8e 3e
       0.3177136 -0.109921075 0.006884081 0.2774147
000130 5f d3 99 bd 00 28 fd be dc 5c 63 be 32 f0 46 be
       -0.07511019 -0.4944458 -0.22203392 -0.19427565
000140 a2 56 d8 bd e8 29 79 3d ec d4 e7 bd 1c a1 0b 3d
       -0.10563399 0.06083098 -0.113199085 0.034089193
000150 f8 3a e1 3c ac 82 c9 bc e4 e5 a9 bd 14 7f 13 3e
       0.027493939 -0.024598442 -0.08295801 0.14403945
000160 6f 8a 59 bd 3c c0 fb 3d f7 cb d2 be cb b8 4b 3e
       -0.053110536 0.12292525 -0.41171238 0.19894712
000170 c5 f4 be bd 5d e3 0b be c1 ef 77 bd cc f6 72 3d
       -0.0932403 -0.13660951 -0.06053138 0.059317395
000180 1c 79 99 3c 83 d8 3a 3d 73 68 87 3d fc 5b 5a 3d
       0.018734507 0.045616638 0.06611719 0.05331038
000190 4b a1 e9 bd 0d c2 83 3f 64 af bb bd a4 7a 29 bd
       -0.11407717 1.0293595 -0.091643125 -0.041376725
0001a0 f2 9f 89 bf 80 a7 41 bb b4 b1 f4 3e ff ee b5 3e
       -1.0751936 -0.00295493 0.47791827 0.35533902
0001b0 0c ed 94 3e 5c 09 71 3e 5f 1e a9 bd 6a ee 14 bb
       0.29087102 0.23538727 -0.08257746 -0.0022725114
0001c0 df c1 7b 3e 8c 18 90 3d 58 47 c9 be b3 66 a0 be
       0.24585675 0.07035932 -0.39312243 -0.31328353
0001d0 40 cb 24 3e 72 a3 63 bd cd bb 32 3e cb 80 59 be
       0.16093159 -0.055575795 0.17454453 -0.21240537
0001e0 bb cd ba be e5 48 16 3e c6 4d ec bd a9 83 07 3e
       -0.36485085 0.14676245 -0.115382716 0.13233818
0001f0 6a b6 25 be a9 fd 22 3e b3 5d 0f 3e 7a c3 95 3e
       -0.16182867 0.15917076 0.14000587 0.292507
000200 93 39 c4 be 7d 41 aa 3e 5b e4 60 3e 8b 36 b4 3c
       -0.38325176 0.3325309 0.2196211 0.021998664
000210 86 44 ce 3d 40 1e 48 3d 4a 19 cf ba 09 f3 ec 3d
       0.100716636 0.048856974 -0.0015800383 0.11569793
000220 59 d8 85 bd bb ca d3 3d 73 54 77 3f 6d ef f8 ba
       -0.06535406 0.10341402 0.96613234 -0.0018992253
000230 b7 76 1f 3e d1 15 54 bf 1f d4 1f 3e 9f c9 05 3e
       0.1557263 -0.8284579 0.15608262 0.13065194
000240 e9 63 bd bd ee 7c ad be dc 1d a1 be 86 52 f9 bd
       -0.09247572 -0.33884376 -0.31468093 -0.12173943
000250 6e 69 81 be 47 be d6 3e 8b 98 e8 be 9b 47 6e be
       -0.2527575 0.41942045 -0.4542888 -0.23269503
000260 63 d0 f4 3e 60 7c 87 be ae 95 ff bd 32 77 e5 bd
       0.47815236 -0.26462078 -0.12479721 -0.11204375
000270 1a 95 5c be de ee eb 3b 4e fb c1 bd 85 ac 62 3d
       -0.21541253 0.007200106 -0.09471761 0.05534031
000280 5d b5 db bd 6c 3c 80 3d ff 6a e6 3c 8f 07 9f 3e
       -0.10727952 0.062615246 0.028127192 0.31060454
000290 8e b6 ff 3e 87 d4 75 3e 1d 2e 7d 3e 53 11 f3 bb
       0.49943966 0.24006854 0.24724622 -0.0074178367
0002a0 7f 8a ed bc 19 35 83 3e 92 c9 43 3e 2f fa 1b 3d
       -0.028996704 0.25626448 0.19119862 0.03808039
0002b0 78 1a 09 be 94 a2 1b 3e fc 7c ce bd a8 8c 97 3f
       -0.13389003 0.15198737 -0.10082433 1.18398
0002c0 d7 e9 24 be e2 4c 96 bd ea d2 72 bf d7 09 08 be
       -0.16104828 -0.07338883 -0.9485308 -0.13285004
0002d0 f8 cf b9 be 06 53 c4 3d dc 64 bf 3d d8 4b 98 3d
       -0.3629148 0.09586148 0.09345409 0.07436341
0002e0 a0 6e 92 3e 89 fa 3d be 42 42 98 3d 5d 6a f0 3d
       0.28600025 -0.18552603 0.07434513 0.11739037
0002f0 d2 ba 82 be 83 29 da be 19 78 40 bf bb d6 6c 3e
       -0.25533158 -0.42609796 -0.75183254 0.23128788
000300 38 7c 57 3c dc dd d0 3c 18 13 f5 3c 4d 54 43 3c
       0.013152175 0.025496416 0.029916331 0.011921954
000310 65 61 aa 3d a5 bc 9a 3d ee 9c f1 3e 9b a8 5d 3e
       0.08319358 0.07555512 0.4719004 0.21646349
000320 61 33 85 bd 4b 3c 7b 3c 5d 0b cc 3c b9 82 06 be
       -0.065039404 0.015334199 0.024907762 -0.13135804
000330 75 cc a8 3c 5b 63 23 3c ce c8 d4 bd 5c 2d b8 ba
       0.020605305 0.009972419 -0.10389863 -0.0014051604
000340 90 ea dd 3d 5a 51 e4 3c 98 38 9e bd e3 30 c0 be
       0.10835755 0.027870823 -0.07725638 -0.37537298
000350 eb d0 df 3d 39 46 82 bd 00 68 97 ba 83 9c 8a bd
       0.1092852 -0.0636105 -0.001155138 -0.067681335
000360 13 ae 03 be bc ea 22 3f 87 16 a9 bc 5d 9a 1e bc
       -0.12859373 0.63639426 -0.020640625 -0.009680358
000370 38 b6 8e 3c e6 1e 8d bc eb f8 88 be d1 aa fa 3d
       0.017420873 -0.017226648 -0.2675241 0.12239612
000380 d5 40 3d be ff 86 66 bd c2 71 84 be 9e 50 1d 3d
       -0.18481763 -0.056281086 -0.2586804 0.03840696
000390 d4 7a 31 3d 90 59 91 bd 9f af 92 3d 43 41 c9 3d
       0.04333003 -0.07097161 0.07162403 0.09826901
0003a0 3f fc 47 bd b6 33 32 3c d3 4f 9a bd 46 56 c2 3e
       -0.048824545 0.010876587 -0.075347565 0.37956446
0003b0 42 51 e2 bc b0 45 73 3e 12 6e 40 be 4e 7b 13 3e
       -0.027626637 0.23757052 -0.18791988 0.14402506
0003c0 7e 51 01 bf 05 83 f3 3d 84 85 c2 bd 37 33 15 bd
       -0.5051497 0.11890224 -0.09498122 -0.036425795
0003d0 3d 0e 06 3c 83 33 53 3e 03 5d 16 bd b9 56 c3 3d
       0.008182106 0.20625119 -0.036709797 0.095380254
0003e0 14 7a bd be af bc 3c 3f 8d 26 f0 3c 90 00 b2 3c
       -0.370072 0.7372541 0.029315257 0.021728784
0003f0 8b 17 21 bf 74 d7 44 bd e4 fb 99 bf d4 a9 6c bd
       -0.6292655 -0.048057035 -1.2029996 -0.05777915

dense_1.bias f4 [64]
000000 55 1e 1b bf c7 51 6f bf 62 85 87 bf e8 f8 80 bf
       -0.6059316 -0.9348416 -1.058758 -1.007596
000010 c8 d3 6d bf d8 8a ff bd af 58 56 bf a8 47 86 be
       -0.9290128 -0.12477654 -0.8372907 -0.26226544
000020 66 fc 0d bf 62 73 f3 be 86 d0 05 bf 31 1a 45 bf
       -0.55463254 -0.47548968 -0.52271307 -0.7699309
000030 31 eb 38 3d a4 5b 7e 3e 91 1c ea be 8e 20 81 bf
       0.04514617 0.24839646 -0.4572492 -1.008806
000040 4a 69 6f bf 47 9e 28 bf 21 43 b5 be 46 9e 6c bf
       -0.93520033 -0.6586651 -0.35402778 -0.92429006
000050 09 e4 3a be 23 74 15 3f 8d 3a 87 bf ce ea 5e bf
       -0.18251051 0.58380336 -1.0564743 -0.87077034
000060 e3 cb a6 bf a8 dd 88 bc 18 9a 64 bf 2d b9 92 bf
       -1.3030971 -0.016707256 -0.8929763 -1.1462761
000070 1d 9d 3c bf 72 6e 60 bf fd da 39 be e5 3c 00 bf
       -0.73677236 -0.87668526 -0.18149944 -0.5009292
000080 31 b7 9f 3d 00 43 db be f8 d9 4e bf 9b ad 77 bf
       0.07798613 -0.42824554 -0.80801344 -0.96749276
000090 96 ae 90 bf 39 c8 4b bf 67 c9 bf be 32 1e 8d be
       -1.1303279 -0.7960239 -0.37458345 -0.275621
0000a0 c2 44 19 bf a2 da 52 be 73 d3 70 bf ca 21 6c be
       -0.5987054 -0.20591214 -0.94072646 -0.23059765
0000b0 d7 d9 65 bf 0e 93 51 bf 9b c9 2d bf 98 65 9d be
       -0.8978552 -0.8186501 -0.6788575 -0.30741572
0000c0 17 45 73 bf 85 cc 8b bf 17 0e a2 bf 23 c0 ef 3e
       -0.950273 -1.092179 -1.266055 0.46826276
0000d0 e9 0b 82 bf f8 58 3a bf 79 bc 87 be 3b 97 ed be
       -1.0159885 -0.72792006 -0.2651098 -0.46404442
0000e0 a0 db 66 bf f0 90 12 bf 2d 42 7b bf e8 68 1e bf
       -0.9017887 -0.5725241 -0.9814785 -0.61878824
0000f0 55 fc 42 bf f0 06 ee be cb 46 4e be 48 c1 59 be
       -0.7616628 -0.46489668 -0.20144193 -0.21265137

dense_2.weight f4 [64, 64]
000000 5d 39 a0 3e 65 01 01 bf 98 62 5b be 38 6c 22 3e
       0.31293765 -0.5039275 -0.2142433 0.15861595
000010 eb b3 93 be b8 21 a3 3c be e5 53 3e 07 ea 01 bf
       -0.28848204 0.01991354 0.20693108 -0.5074772
000020 68 b5 ca 3e 21 c9 03 3f 41 12 4c be 20 ec 69 bf
       0.39591527 0.51478773 -0.19928838 -0.91375923
000030 d1 cc ce 3e 6d a6 c2 bc 6f e6 f8 bd 5d 55 07 bf
       0.40390638 -0.023760999 -0.12153327 -0.5286463
000040 e0 91 0a bf db 8c 4e bc 01 ef 53 be c3 a5 97 3c
       -0.5412884 -0.012606825 -0.20696642 0.018511659
000050 f3 31 09 bf e0 54 ad 3e 90 56 a3 3d 98 7c b9 be
       -0.5359184 0.33853817 0.07975495 -0.3622787
000060 7f e4 76 be 98 95 e9 3d b1 83 89 bd 13 1c aa be
       -0.24110602 0.11405486 -0.06714571 -0.33224544
000070 a7 2c 3c be 26 27 d2 be b8 03 a1 3d 2f 46 e9 3d
       -0.18376409 -0.41045493 0.078620374 0.113903396
000080 bd 1b 91 3e e3 b3 ff 3b 18 88 2b bf d9 31 cd 3d
       0.28341475 0.0078034266 -0.6700454 0.10019273
000090 04 4e a0 3d 4a ac 01 bf 54 70 de bd 71 76 21 be
       0.0782738 -0.5065352 -0.10861269 -0.15767838
0000a0 a7 0f a0 bd a6 29 64 be 19 cd 83 3e 81 11 21 bf
       -0.078154854 -0.22281513 0.25742415 -0.62917334
0000b0 eb 9c 86 be 56 13 57 3e 5c e4 00 be 7e 8c de be
       -0.26291594 0.2100347 -0.12587112 -0.43466562
0000c0 2a e5 5d bf 9c a7 a5 be 77 f7 b0 be 17 0d 6c 3d
       -0.866778 -0.32354438 -0.345638 0.05762967
0000d0 a6 e4 cb bd 29 78 69 be b2 1b 2a be cc c0 1e be
       -0.099557206 -0.22799744 -0.16612127 -0.15503234
0000e0 dc 5f 0c bf 36 c5 14 3d 2f db 9d be c8 dc ed 3b
       -0.5483377 0.036320888 -0.30831286 0.007258985
0000f0 c5 e4 27 be 08 c3 fd 3d 6f 74 93 3d e8 80 4b bf
       -0.16395862 0.12390715 0.07199942 -0.7949357
000100 a1 13 5d 3d 57 e2 1d 3e 32 0d ad be f0 8b 47 3e
       0.053973798 0.15418373 -0.3379913 0.19486976
000110 5d 1d c5 3d e3 02 5c bc 0a 0f 81 be 51 d9 53 3d
       0.09624741 -0.013428423 -0.25206786 0.05172092
000120 4f 39 e1 3d f3 f1 a3 bd 90 09 da 3d 0c 67 29 3e
       0.10997259 -0.080051325 0.10646355 0.16543216
000130 f0 b1 ad 3d af f9 aa 3d fe e2 68 3e 3d 8a 9a be
       0.084812045 0.083484046 0.2274284 -0.30183592
000140 12 28 25 bd 9e 6a b5 bd c9 76 45 bd 48 f5 07 be
       -0.040321417 -0.08858226 -0.048208985 -0.13277161
000150 7b 3b d9 bd cb 29 55 bc 57 80 dc be d5 74 87 3d
       -0.10607048 -0.0130104525 -0.43066666 0.06614081
000160 f7 3a 50 3e fe 4d 6b b9 d9 e4 7c 3d 39 69 b4 bc
       0.20334993 -0.00022440401 0.061741684 -0.02202283
000170 6e 49 0c 3d 8f 29 aa 3d e0 a1 ae 3d 39 74 31 bf
       0.034249716 0.08308708 0.08526969 -0.69317967
000180 eb e5 8d 3d 15 3f dc be f8 30 f0 be 8f df 92 be
       0.06928619 -0.43016878 -0.4691236 -0.28686187
000190 5a 1e 30 be ce e8 8d be e3 0e 15 3d 78 10 87 be
       -0.17199078 -0.27716678 0.03639115 -0.26379752
0001a0 5a ca e1 bb 05 99 42 be 91 ff 54 3e 2f c8 76 be
       -0.0068905773 -0.19003685 0.20800616 -0.24099801
0001b0 3d 65 e0 3d b8 41 3e be c3 ff 94 be c8 0f c9 3d
       0.1095681 -0.18579757 -0.2910138 0.09817463
0001c0 d7 69 64 be 89 b2 1e 3e 75 52 1d bd 2d 7f 53 3e
       -0.22306 0.15497793 -0.038408715 0.20653982
0001d0 20 dd a9 be dd 06 1e bf e8 e9 89 be 91 a1 54 bd
       -0.33176517 -0.6172922 -0.2693627 -0.051911894
0001e0 bf 6f 14 3e cb 64 27 3d c4 13 99 be 80 d5 10 3e
       0.14495753 0.040867608 -0.29897892 0.14143944
0001f0 ae 50 b9 3d 83 ce 72 3e 0c 97 91 bc b4 fb c3 be
       0.090485916 0.2371159 -0.01777222 -0.38277972
000200 ad 37 a3 bd 87 ea c4 be 2a 6c 88 3d a2 5a e9 bc
       -0.07969604 -0.3846018 0.06661256 -0.0284856
000210 68 fb 09 be 5b 01 c1 bd 30 35 91 bd 9e e1 78 3c
       -0.1347481 -0.09424087 -0.07090223 0.01519051
000220 f0 e2 56 bf eb bf a3 be 02 c2 59 be dc 59 19 3e
       -0.8394003 -0.3198236 -0.21265414 0.14975685
000230 b8 10 d1 be b1 bd 8e bc 8c 43 0a 3e 97 3c fe 3c
       -0.40833068 -0.017424436 0.1350233 0.03103475
000240 9a 75 19 3d d7 7c 03 be b5 5e e5 bd f1 94 c4 3c
       0.03746567 -0.12840591 -0.111997046 0.023996802
000250 56 e2 1d 3e e8 c7 92 be 76 a5 cd 3e 24 89 bb 3e
       0.15418372 -0.2866814 0.401653 0.36628067
000260 5b b7 20 bd 68 5a 27 bf 2f c0 90 bd 62 d8 7e bb
       -0.03923736 -0.65372324 -0.07067906 -0.0038886298
000270 44 34 8d 3e e6 4f 5b 3c db 70 98 be a7 91 85 3e
       0.27578938 0.0133857485 -0.29773602 0.26087686
000280 66 6c 45 3d 7a 5a 82 be 06 ab 99 bc c2 a7 98 bd
       0.04819908 -0.25459653 -0.018758308 -0.07453872
000290 df 3b 22 3d 83 31 89 3d 54 d3 6f 3e e2 14 20 3d
       0.03960788 0.06698897 0.23420459 0.039082415
0002a0 8c f6 c8 bd f2 7e 7f be 03 45 2b bd 92 d0 ae bc
       -0.0981265 -0.2495077 -0.04181386 -0.021339688
0002b0 57 d9 8e be a6 e0 1e 3d d5 38 bc 3d f2 ef a7 be
       -0.27900192 0.03878846 0.09190527 -0.3280025
0002c0 07 b7 54 3e 1c c9 0f 3e ce 8b 1f be 8b 78 3a 3e
       0.20772944 0.14041561 -0.15580675 0.18210046
0002d0 03 89 4b bd ff bd 2a bf 2c 93 c4 be f7 6e c6 3a
       -0.04969121 -0.6669616 -0.38393533 0.0015139271
0002e0 59 e1 06 3e a0 43 c0 3e 21 67 97 3d 1a bb 67 3e
       0.13171901 0.37551594 0.07392717 0.22629967
0002f0 ba 89 f1 3d 34 a5 cd be 44 77 b1 3d 50 d1 bd 3c
       0.117938474 -0.40165102 0.08665326 0.023171097
000300 04 80 0e be 11 42 9a bd e7 9b 3e 3c be df 5d bd
       -0.13916022 -0.075321324 0.01163385 -0.054168455
000310 d2 fc 14 3e 38 fd f4 3c d6 c3 43 be c5 54 9c 3d
       0.14549568 0.0299059 -0.19117674 0.07633356
000320 34 6b 85 bf 7c b7 a8 be 20 0a 8a 3d 40 a2 a8 be
       -1.0423341 -0.32952487 0.067402124 -0.32936287
000330 18 b9 17 be 6a 44 bf be 65 7e 34 be 4d 9e 7c be
       -0.14816701 -0.37356883 -0.1762634 -0.24669762
000340 35 f8 b0 be 1e be 9e be e4 8f 59 be aa 62 60 3e
       -0.34564367 -0.31004423 -0.21246296 0.21912637
000350 63 ab b7 bd 01 65 47 3e bd df c0 be 31 ce a3 3d
       -0.08968236 0.19472124 -0.376707 0.07998312
000360 66 96 bd bd 24 8d fd bd 20 25 20 bf b5 80 b4 be
       -0.09257202 -0.12380436 -0.6255665 -0.35254446
000370 6e f9 a7 bc fc 90 56 bd 2c b6 29 bd 41 62 0f bf
       -0.02050468 -0.05238436 -0.0414335 -0.560093
000380 ca 25 35 bd 5b 8e 14 bf c2 de 21 3f 39 12 25 be
       -0.04422549 -0.5802972 0.63230526 -0.16120233
000390 e4 87 fe be 83 5e 8f 3d 55 07 c0 3d a2 11 d5 3d
       -0.4971305 0.070004486 0.093763985 0.10403754
0003a0 80 2a 46 3c ef 17 05 bf 71 0f 90 3d 86 66 74 bf
       0.012095094 -0.51989645 0.07034195 -0.9546894
0003b0 40 cc 39 3d 05 75 0a be 70 f5 58 3e 78 01 77 3e
       0.045360804 -0.13521202 0.21187377 0.24121654
0003c0 5a 77 d9 be 15 07 04 be 6e 58 bb be a7 d5 f4 be
       -0.4247387 -0.12893327 -0.36590904 -0.47819254
0003d0 57 9e 2f bf 56 a5 10 bf 5a 2d e9 be 5b bb 99 bf
       -0.6860098 -0.5650228 -0.45542413 -1.2010301
0003e0 62 b3 8d be 6a fa ab bb 86 ff fd 3d de c5 e5 3d
       -0.2767592 -0.0052483575 0.12402253 0.11219381
0003f0 49 3e 72 bd 93 30 a7 3e 14 c6 25 bf 67 6f 40 bf
       -0.05914143 0.32654247 -0.6475537 -0.75169986

dense_2.bias f4 [64]
000000 d6 40 b3 be 8b 6a 7e 3f 02 9f 36 3f 00 1e 04 bf
       -0.35010403 0.9938132 0.71336377 -0.51608276
000010 2e a8 86 3f da 7e f2 bd b5 dc 5a 3f 48 ad 4b bf
       1.0520074 -0.11840601 0.8549302 -0.7956128
000020 29 14 d1 3d ef 42 f0 be cb 07 ef be ce 66 8c 3e
       0.10208923 -0.46926066 -0.46685633 0.27422184
000030 26 c0 d9 be 22 e4 67 3f 8f 59 44 bf d0 6b 61 bf
       -0.4252941 0.9058248 -0.76699156 -0.88055134
000040 8a 9a 94 3c b7 1f 31 3f ed d3 2e 3f fb 4b 44 3f
       0.018140096 0.6918902 0.68292123 0.76678437
000050 00 6d 77 3f 70 c4 ec be be 6a 59 3f c5 b8 19 bf
       0.96650696 -0.4624362 0.849285 -0.6004756
000060 cf f1 90 bf 86 ae b6 be 7c d1 f0 be 03 33 bf be
       -1.1323794 -0.35680026 -0.47034824 -0.37343606
000070 fd 80 93 3f 56 ef 6b bf 1e 92 c1 be 21 84 55 3d
       1.1523739 -0.9216207 -0.3780679 0.05212796
000080 ce a9 80 3f 89 c5 2e 3f 89 ae c0 3e 62 f2 bf be
       1.005182 0.68270165 0.3763316 -0.3748961
000090 41 87 68 3e 88 c5 44 bf 32 7c 45 3f cd 9f 2b 3f
       0.22707845 -0.7686391 0.7714263 0.6704071
0000a0 12 53 e1 3e 12 16 9c 3f 19 9d 82 be 9c 6e 02 3f
       0.4400869 1.2194235 -0.2551048 0.50950027
0000b0 8c e5 7d 3f d7 53 8f bf 4d f6 25 3e eb 17 c6 3d
       0.99178386 -1.1197461 0.16207238 0.09672531
0000c0 74 fe 3a bf 10 70 3d 3e 4a 6a 7c be d0 5c 84 3f
       -0.73044515 0.1849978 -0.24649921 1.0340824
0000d0 a1 8c 6d 3f 9b 5c 47 bf 92 04 45 3f 25 d0 30 bf
       0.9279271 -0.7787568 0.769601 -0.69067603
0000e0 51 45 65 bf f7 3a 2b bf 53 fe e2 bd bb 69 ba 3e
       -0.89558893 -0.6688685 -0.11083665 0.3640879
0000f0 21 fd fb be 40 e8 a1 3f 4e 20 4d 3f 27 c7 6b 3c
       -0.4921656 1.2649002 0.8012742 0.014390743

dense_3.weight f4 [1, 64]
000000 38 3c 64 bd f3 da e5 3d 82 8b c5 3d 9c c8 17 be
       -0.05572149 0.11223402 0.0964575 -0.1482262
000010 4a 21 ad 3d 44 b4 da bc a2 40 8d 3d 95 f6 90 bc
       0.08453615 -0.026697285 0.06897093 -0.017695704
000020 22 f6 17 be d3 cd 8e bd a1 77 0c be d0 c9 e4 bc
       -0.14839986 -0.069728516 -0.1371751 -0.027928263
000030 2b 50 f9 bd 91 33 35 3d 06 32 1a be 2a 17 c0 bd
       -0.12173494 0.04423863 -0.15058145 -0.09379418
000040 f3 56 2d be e5 29 e8 3d 14 6f 1a 3d 6f 1d 04 3d
       -0.169277 0.11336116 0.03770359 0.032254633
000050 76 d4 ac 3d 04 f4 4c be c6 e4 2a 3e cc 1b d0 bd
       0.08438961 -0.2001496 0.16688833 -0.10161552
000060 2e b9 e4 bd 81 9d 8e bd 22 8d 90 bd d4 dc 34 be
       -0.11168133 -0.06963635 -0.07058169 -0.17662364
000070 f3 f9 65 3e 3d 83 57 be 25 8f 63 bd 0a c9 3a 3e
       0.2245863 -0.21046157 -0.055556435 0.18240753
000080 63 98 35 3e 39 ed 9d 3d de 64 cb 3c 66 a1 b1 bd
       0.17733912 0.07711262 0.02482837 -0.086733624
000090 a0 60 36 3e 07 a9 c1 bd 7e ba e7 3d f3 96 fb bd
       0.17810297 -0.094560675 0.113148674 -0.12284651
0000a0 57 e2 9c 3d 57 50 7f 3e 08 15 66 be 5d f9 e5 3c
       0.076603584 0.24932991 -0.2246896 0.028073007
0000b0 dd 8a cd 3d 68 66 7b bd c7 52 01 3e c8 9b e8 3b
       0.10036252 -0.06137696 0.12629233 0.0070986487
0000c0 8c 9f 6a bd 0d bb e6 3d d5 f2 63 bd 44 b1 c6 3d
       -0.057281062 0.11266146 -0.055651505 0.097017795
0000d0 2d 31 d6 3d a6 f2 4a bd f2 c2 56 3d b0 c2 04 be
       0.10458598 -0.049547814 0.052432008 -0.12964892
0000e0 29 56 12 be 9f 3b db bd 5a 24 b5 bd ef 4d 5e 3d
       -0.1429068 -0.10704731 -0.08844824 0.054273542
0000f0 f5 eb f6 bc 2d 7d 97 3e 68 88 b0 3d b7 66 7c 3c
       -0.03014181 0.2958769 0.086197674 0.0154053485
